lenet.onnx (onnx, 329042 bytes, 8 tensors)

conv1.weight f4 [6, 1, 5, 5]
0.004082785 0.0507786 -0.41188 -0.47929212 -0.29520175 0.32993132 -0.04153227 -0.37546962
-0.3351548 -0.41767222 0.34797364 0.13729398 -0.2864756 -0.25339714 -0.19814499 0.1774839
0.2743463 -0.21129298 -0.36757436 -0.46393254 0.26334596 0.349012 -0.22504845 -0.370585
-0.3888169 0.14370586 0.015811332 -0.057352915 -0.030770173 -0.10161831 0.05829121 -0.14256091
0.14848636 -0.15534347 0.092997745 0.046892148 -0.041315686 0.059903506 -0.015810955 0.011705449
-0.084477685 -0.10135312 -0.16459174 0.10560647 -0.103794806 -0.19372341 0.120867595 -0.19481023
-0.10356241 -0.030938603 -0.25896817 -0.25385177 -0.17807195 0.040530622 0.035682425 -0.1500996
-0.30450806 -0.14989723 0.05866357 0.05677886 -0.1839945 -0.031921364 0.059975225 -0.06067934
-0.13558689 -0.076619394 0.046724815 -0.09418748 -0.08940055 -0.29988834 -0.31782222 -0.23873864
-0.09103795 -0.055973418 -0.082294986 -0.17805825 -0.12856571 0.108111665 -0.057403196 0.13635412
-0.035515685 0.1941802 -0.080400206 -0.13356236 0.21330118 -0.17752676 -0.07061726 0.07044203
0.17014799 0.06669972 0.0984713 -0.08759594 0.21482258 0.22705571 0.012527906 -0.10050299
0.24752347 0.06876265 0.25476697 -0.12072589 -0.23483554 -0.47216946 -0.22434203 -0.22630078
-0.24911729 -0.41119218 -0.39924827 -0.2625036 -0.5377527 -0.50159466 -0.20596664 -0.511258
-0.42966095 -0.3996349 -0.375081 -0.44420248 -0.409808 -0.5547408 -0.23448525 -0.2906837
-0.24166077 -0.43512633 -0.30279335 -0.3270032 -0.3051799 0.13554841 -0.13751696 0.110126875
0.110052936 -0.08798264 -0.19095844 -0.11945096 0.026745774 0.12869923 -0.07536795 -0.06348409
-0.056314792 0.17160188 -0.15137923 0.105064206 -0.03066417 -0.09199579 -0.08571295 -0.17184724
0.19548286 0.09992238 -0.09771268 -0.15114708 0.11480397 -0.12805209
00000000: e2c8 853b 39fd 4f3d efe1 d2be c765 f5be
00000010: af24 97be c2ec a83e be1d 2abd 8e3d c0be
00000020: 6999 abbe 22d9 d5be 9a29 b23e cb96 0c3e
00000030: eeac 92be 45bd 81be 85e6 4abe 57be 353e
00000040: 1e77 8c3e 305d 58be b532 bcbe 9188 edbe
00000050: 48d5 863e b3b1 b23e 1a73 66be 51bd bdbe
00000060: 0213 c7be a127 133e c486 813c e4ea 6abd
00000070: bb11 fcbc 431d d0bd c4c2 6e3d 7dfb 11be
00000080: cf0c 183e 5c12 1fbe 9a75 be3d fb11 403d
00000090: a33a 29bd 615d 753d fa85 81bc 36c8 3f3c
000000a0: a302 adbd 3992 cfbd bd8a 28be 3448 d83d
000000b0: 5f92 d4bd 6e5f 46be 6e89 f73d 557c 47be
000000c0: 8718 d4bd f472 fdbc 7a97 84be dcf8 81be
000000d0: 7e58 36be 7003 263d bc27 123d b6b3 19be
000000e0: 7be8 9bbe a97e 19be 3649 703d f390 683d
000000f0: 0e69 3cbe fabf 02bd 95a8 753d e68a 78bd
00000100: 4ad7 0abe a1ea 9cbd 8562 3f3d 5ee5 c0bd
00000110: a317 b7bd f78a 99be 98b9 a2be e777 74be
00000120: 1b72 babd 6244 65bd 468a a8bd e754 36be
00000130: bba6 03be a669 dd3d 9d1f 6bbd 6aa0 0b3e
00000140: e578 11bd 2dd7 463e dda8 a4bd 92c4 08be
00000150: a06b 5a3e 93c9 35be c89f 90bd e943 903d
00000160: 463b 2e3e dd99 883d 52ab c93d 8065 b3bd
00000170: 73fa 5b3e 4b81 683e d941 4d3c 83d4 cdbd
00000180: cb76 7d3e 6fd3 8c3d d170 823e 233f f7bd
00000190: ba78 70be 32c0 f1be ebb9 65be 64bb 67be
000001a0: 9a18 7fbe c887 d2be 456a ccbe df66 86be
000001b0: 29aa 09bf 8268 00bf ebe8 52be cee1 02bf
000001c0: 85fc dbbe f29c ccbe 9e0a c0be 826e e3be
000001d0: 5bd2 d1be 7e03 0ebf e71c 70be 7ed4 94be
000001e0: ec75 77be e1c8 debe bb07 9bbe f76c a7be
000001f0: 8a40 9cbe 34cd 0a3e 3fd1 0cbe 338a e13d
00000200: 6f63 e13d 3e30 b4bd 9c8a 43be b4a2 f4bd
00000210: f419 db3c bbc9 033e 835a 9abd f203 82bd
00000220: 57aa 66bd 67b8 2f3e 2803 1bbe e72b d73d
00000230: 6d33 fbbc 4a68 bcbd 458a afbd b9f8 2fbe
00000240: a92c 483e 1ba4 cc3d 961d c8bd 4dc6 1abe
00000250: 581e eb3d 1620 03be

conv1.bias f4 [6]
1.0078505 -0.17473204 -0.32146397 0.008351424 -1.0724752 -0.15837301
00000000: 3f01 813f f5ec 32be ed96 a4be 69d4 083c
00000010: de46 89bf 892c 22be

conv2.weight f4 [16, 6, 5, 5]
-0.05350155 0.07424321 0.010499682 0.05188415 -0.008020247 -0.06043595 -0.008322516 -0.069942966
-0.04608972 0.055632267 -0.061758358 0.08952285 0.06688395 -0.06170353 0.0748616 -0.062192153
0.09290067 0.09886277 0.005370299 -0.019342326 -0.006549637 0.091188416 0.017007843 -0.011449589
0.009451113 0.023404874 -0.027766865 -0.07123834 0.08011425 0.05968958 -0.0011289492 -0.029012155
-0.05205662 0.022747418 -0.060692545 0.072230905 -0.010529548 0.050656598 0.019973544 0.07504632
-0.03266592 0.019832622 0.072293855 0.034452125 0.0061968495 0.022981083 0.06819429 0.04919685
-0.003605578 -0.032366604 0.06458112 -0.0030749794 -0.05683629 0.010471375 0.06303222 -0.06282246
-0.02276423 -0.06274707 0.03722942 0.01841975 -0.04301256 -0.06649885 -0.0034342366 0.07649943
-0.044403795 0.049715836 0.008484149 0.016164359 0.07126679 -0.03672137 0.07735659 -0.02960186
0.053489476 0.05306686 -0.0038023095 0.000599043 0.03703876 0.0023282429 -0.036336668 -0.009763423
0.081113495 -0.07581464 0.058622234 0.016719354 0.011817227 -0.024839628 -0.000602547 -0.08036509
0.001545312 0.040999845 -0.07250198 -0.078384705 0.06707584 0.025741866 -0.049061857 -0.061614953
0.018272223 0.0019131884 0.011193173 0.053472232 -0.04055901 -0.042519122 0.058058616 0.0019404972
-0.0052022794 -0.034653608 -0.019887097 -0.031067133 -0.034090254 -0.033285633 -0.01671148 -0.06865284
0.05140208 0.048239738 -0.049468122 0.041895475 -0.046356324 -0.07431544 -0.04898866 -0.03900944
-0.041145705 0.0857541 0.08214857 0.07304149 0.016939254 -0.0018202947 0.072129145 0.022574568
0.046789464 -0.05330745 0.075376384 0.05512721 -0.00211055 -0.01792919 0.003358713 -0.05921701
-0.039257813 0.032824434 -0.06334064 0.064647526 -0.052112438 0.0613601 -0.05365013 -0.017494965
0.030986136 -0.047402125 0.079786174 0.036094807 0.054380503 0.047028325 0.13530807 0.04553888
0.0004083765 -0.07690851 -0.049454477 0.11162103 0.122629955 -0.06580604 0.0013091521 -0.050549693
0.12985288 0.022964068 0.035117384 -0.094023205 0.0011843726 0.023982817 -0.029365914 0.013906774
0.012984235 -0.03345389 -0.05284022 0.05935843 0.066842236 -0.06569158 -0.02891605 -0.0060979873
0.0805789 -0.025498888 0.045012295 -0.06513412 0.08013944 0.06726462 0.04303852 0.07873602
0.054841608 0.0051679187 0.03145541 -0.012924133 0.0027939568 -0.011903763 -0.06726885 0.025552481
0.080926225 0.05737715 0.06701246 -0.072365716 -0.03752582 0.034325548 -0.0022496001 0.019318983
-0.03830631 -0.04357173 0.053687412 -0.003155669 0.014457778 0.023159247 -0.025185471 0.0063239867
0.02802801 -0.03450742 -0.060380448 0.019207908 0.03350113 0.005836555 0.06614924 -0.06847771
0.044557545 -0.03242544 -0.021448264 0.008089468 -0.03357322 0.04726862 -0.010404524 -0.026962383
-0.05989978 -0.050859243 0.00834923 -0.04094803 -0.054309964 0.051899884 -0.04786469 0.022691624
0.0019699305 0.029662535 0.06677819 -0.037674177 0.010546897 -0.05988954 0.0047516744 -0.056779254
0.049649544 0.08337818 0.076789916 0.084947616 0.020677075 -0.012329773 0.05752444 -0.016544959
-0.06657217 0.047324598 0.063366875 -0.059320323 -0.080755 -0.032728527 -0.05769456 -0.049387746
00000000: 7124 5bbd d30c 983d dc06 2c3c 7984 543d
00000010: 5b67 03bc b08b 77bd 2a5b 08bc 423e 8fbd
00000020: 93c8 3cbd a9de 633d 55f6 7cbd c257 b73d
00000030: 74fa 883d d7bc 7cbd 0a51 993d 33bd 7ebd
00000040: b542 be3d 9078 ca3d 55f9 af3b cc73 9ebc
00000050: 569e d6bb fec0 ba3d 0854 8b3c 0f97 3bbc
00000060: d7d8 1a3c 94bb bf3c 5677 e3bc 68e5 91bd
00000070: f112 a43d 107d 743d 40f9 93ba e6aa edbc
00000080: 5339 55bd cb58 ba3c bf98 78bd cced 933d
00000090: 2084 2cbc 4b7d 4f3d 8f9f a33c e3b1 993d
000000a0: b3cc 05bd 0678 a23c cd0e 943d ac1d 0d3d
000000b0: f10e cb3b d342 bc3c 73a9 8b3d a382 493d
000000c0: 904b 6cbb d892 04bd 1b43 843d 9885 49bb
000000d0: 2bcd 68bd 2190 2b3c 0917 813d 10a9 80bd
000000e0: 0d7c babc 8981 80bd e07d 183d 04e5 963c
000000f0: f02d 30bd 8d30 88bd ee10 61bb bcab 9c3d
00000100: c1e0 35bd d5a2 4b3d 1a01 0b3c 1e6b 843c
00000110: 53f4 913d 2669 16bd 226d 9e3d 9a7f f2bc
00000120: c817 5b3d a35c 593d 2b30 79bb 1809 1d3a
00000130: f4b5 173d 6f95 183b c2d5 14bd c4f6 1fbc
00000140: d51e a63d b544 9bbd de1d 703d 07f7 883c
00000150: 0b9d 413c 7a7c cbbc 3ff4 1dba 7496 a4bd
00000160: 118c ca3a 74ef 273d eb7b 94bd 2988 a0bd
00000170: 0f5f 893d 9be0 d23c 16f5 48bd f65f 7cbd
00000180: a1af 953c f3c3 fa3a 9263 373c b305 5b3d
00000190: 3421 26bd 8828 2ebd dfce 6d3d 4858 fe3a
000001a0: e277 aabb f1f0 0dbd 44ea a2bc 8080 febc
000001b0: 39a2 0bbd 8456 08bd 84e6 88bc dc99 8cbd
000001c0: fd8a 523d 0897 453d 169f 4abd 979a 2b3d
000001d0: 21e0 3dbd b232 98bd 55a8 48bd 5dc8 1fbd
000001e0: 6688 28bd d89f af3d 823d a83d c796 953d
000001f0: 31c4 8a3c f496 eeba 72b8 933d 4dee b83c
00000200: 4fa6 3f3d ea58 5abd ef5e 9a3d 12cd 613d
00000210: 2751 0abb 3de0 92bc da1d 5c3b 898d 72bd
00000220: cdcc 20bd ea72 063d bdb8 81bd ec65 843d
00000230: da73 55bd ba54 7b3d 3dc0 5bbd 9a51 8fbc
00000240: a3d6 fd3c bb28 42bd ef66 a33d 26d8 133d
00000250: 17be 5e3d c6a0 403d 338e 0a3e fa86 3a3d
00000260: 5e1b d639 3582 9dbd c790 4abd 9199 e43d
00000270: 6a25 fb3d 51c5 86bd db97 ab3a 320d 4fbd
00000280: 27f8 043e 241f bc3c 3fd7 0f3d 3d8f c0bd
00000290: f33c 9b3a 9d77 c43c c990 f0bc 3dd9 633c
000002a0: d4bb 543c f206 09bd fd6e 58bd d321 733d
000002b0: 95e4 883d 4f89 86bd 5ae1 ecbc a0d1 c7bb
000002c0: 8d06 a53d 0be3 d0bc d05e 383d 0a65 85bd
000002d0: 2620 a43d 08c2 893d 2949 303d 5a40 a13d
000002e0: 98a1 603d a557 a93b 63d7 003d bebf 53bc
000002f0: d11a 373b 0008 43bc 40c4 89bd 7053 d13c
00000300: a6bc a53d 4d04 6b3d d43d 893d 7a34 94bd
00000310: adb4 19bd f298 0c3d 076e 13bb d842 9e3c
00000320: 14e7 1cbd 4578 32bd 55e7 5b3d 57cf 4ebb
00000330: 51e0 6c3c 76b8 bd3c c351 cebc 7239 cf3b
00000340: ff9a e53c a757 0dbd 7d51 77bd e759 9d3c
00000350: 7b38 093d 9240 bf3b 4179 873d 0b3e 8cbd
00000360: f981 363d 8ad0 04bd 45b4 afbc b089 043c
00000370: 1384 09bd be9c 413d bd77 2abc 37e0 dcbc
00000380: 7959 75bd c851 50bd 35cb 083c 1fb9 27bd
00000390: 2074 5ebd f994 543d c40d 44bd c9e3 b93c
000003a0: f319 013b d8fe f23c 01c3 883d 3d50 1abd
000003b0: e4cc 2c3c bc4e 75bd efb3 9b3b 5d91 68bd
000003c0: 525d 4b3d 2ec2 aa3d 0844 9d3d 04f9 ad3d
000003d0: f862 a93c d102 4abc bf9e 6b3d 4b89 87bc
000003e0: fd56 88bd 70d7 413d 7ec6 813d def9 72bd
000003f0: e162 a5bd 590e 06bd 2251 6cbd ce4a 4abd

conv2.bias f4 [16]
-0.061707843 0.037850104 0.32644942 0.21113764 0.23528121 0.18759689 -0.27980253 0.27458733
-0.050019756 -0.15963931 0.23678659 0.35431898 -0.080241114 -0.017201526 0.20642133 -0.06122545
00000000: 5dc1 7cbd b608 1b3d 6124 a73e 7734 583e
00000010: 8fed 703e 6619 403e 4742 8fbe b696 8c3e
00000020: 84e1 4cbd 7d78 23be 2f78 723e 4c69 b53e
00000030: 7455 a4bd 37ea 8cbc 1d60 533e 8ac7 7abd

fc1.weight f4 [120, 576]
0.001911214 -0.040310297 -0.00854861 0.018133264 0.01725029 -0.0022501352 -0.033933606 -0.037434876
-0.04117138 0.0053832796 -0.020597203 0.041191626 0.0297055 0.033617873 0.0032580176 -0.036345042
-0.0037468877 0.030443268 0.014908685 0.027330417 -0.0014712692 -0.026024248 -0.020435208 0.016633015
-0.03229931 -0.01464405 -0.029965943 0.01993331 -0.010794796 0.0126232505 -0.012156367 0.0032124622
0.0032674365 0.004989968 0.00025900878 0.008375193 0.02331601 -0.00851606 -0.03346731 -0.022036465
0.01271862 -0.02094042 -0.020733727 0.01924538 0.006593613 -0.036980778 -0.008584122 0.01729322
0.042029943 0.035263315 0.001711885 -0.028953228 0.03493285 -0.0097786635 0.021467233 -0.027427334
0.0009206416 0.029451417 -0.008106377 -0.0036036116 0.030071605 0.0195624 0.004536675 0.02053323
0.014843869 0.033231396 0.03018856 0.02549625 0.034983408 0.003100515 0.04129042 -0.0040543433
-0.04131378 0.018376343 -0.008987184 -0.0123034995 -0.013039297 -0.02882144 0.005394523 -0.03527878
0.01974 0.005591959 -0.03820941 0.018014517 -0.023666346 0.0032526783 0.015704399 -0.0045343894
0.00800783 0.03259121 -0.00057664065 0.020864585 0.005985376 -0.017231861 -0.030774532 -0.012164326
0.020281833 0.0072333626 0.013920102 0.014287698 0.026301684 -0.019099893 0.015280845 0.015523893
-0.027383877 -0.008643222 -0.026721224 -0.013611692 0.015323558 0.0059971083 -0.03895707 0.030682124
0.026459169 -0.019239634 0.011272059 0.019342054 0.025734194 -0.0068949796 0.009188866 0.02436448
-0.01841242 -0.022737324 -0.026941523 -0.033272147 0.039423287 0.010007284 -0.017937547 -0.023947967
0.014622757 -0.0073085097 -0.03318565 0.00834425 -0.017820109 0.034779474 -0.0023367852 -0.014844814
0.034557603 -0.032909494 0.019149069 -0.0120999655 0.011066907 -0.033146 -0.035294406 -0.028768988
-0.046904676 -0.04477657 0.008699344 -0.025386764 -0.015913676 0.015854057 -0.011399452 0.032275483
-0.0077596996 0.0061540953 -0.023297768 -0.023447746 -0.009764538 -0.027910385 -0.02765439 -0.020465447
0.038801722 -0.034499973 0.032709707 0.032944083 0.018817829 -0.017067937 0.0015413758 -0.008514346
0.027233383 -0.012013121 0.021561515 0.018931378 -0.020197572 -0.00772206 0.012670399 -0.016939117
-0.008454723 0.0040259277 -0.030495279 -0.0144562 0.01193127 0.0052015404 -0.01628154 -0.018075753
-0.018130885 -0.02313017 0.02735826 -0.036840655 0.014642704 -0.031024536 -0.038596235 0.0044409656
-0.00814931 0.0028310213 0.014256974 -0.026435751 0.0323139 0.04101276 0.032956235 -0.035192087
0.003039808 0.026392823 -0.003976516 -0.014119071 -0.036329307 -0.02338833 0.037505902 0.0023491967
0.018999403 0.0011948843 -0.035835054 -0.025451474 -0.02646628 0.0101519395 0.0059146592 -0.014745432
-0.005887641 -0.04283828 0.015817635 0.02959065 -0.030873353 -0.0077154683 -0.03605751 0.033666745
0.014900246 -0.0030616452 0.049460355 0.0410065 -0.03657183 0.025924012 0.042612135 0.046813093
0.05076468 -0.00089393766 0.038307656 0.015490512 0.064861454 0.016670339 0.052712977 0.03677841
-0.0057337023 0.009169955 0.033401057 -0.009134668 -0.011935283 0.032717682 0.027509801 -0.0071953572
-0.01432498 -0.0036620705 -0.044462424 -0.018060977 0.010597952 0.016864441 0.03324569 0.006139533
00000000: b381 fa3a 691c 25bd 780f 0cbc 368c 943c
00000010: 7b50 8d3c 0177 13bb f7fd 0abd 5055 19bd
00000020: 52a3 28bd 3966 b03b 77bb a8bc 8db8 283d
00000030: f358 f33c e5b2 093d 7784 553b 8ade 14bd
00000040: 588e 75bb 2964 f93c 8f43 743c 0ae4 df3c
00000050: 9ad7 c0ba ce30 d5bc bd67 a7bc f641 883c
00000060: 484c 04bd 99ed 6fbc 237b f5bc 2e4b a33c
00000070: a8dc 30bc c0d1 4e3c 802b 47bc 2c88 523b
00000080: 7d22 563b e382 a33b 92cb 8739 1b38 093c
00000090: 3801 bf3c f286 0bbc 0515 09bd d185 b4bc
000000a0: c261 503c 3e8b abbc c7d9 a9bc 7da8 9d3c
000000b0: 3c0f d83b 2879 17bd 6ba4 0cbc 83aa 8d3c
000000c0: 9727 2c3d 4470 103d 5461 e03a 522f edbc
000000d0: c015 0f3d b036 20bc 0ddc af3c 4aaf e0bc
000000e0: 3657 713a 1944 f13c 9cd0 04bc 922a 6cbb
000000f0: ba58 f63c 5441 a03c 63a8 943b 4e35 a83c
00000100: b333 733c a51d 083d 004e f73c 83dd d03c
00000110: c34a 0f3d 0332 4b3b 2520 293d 4cda 84bb
00000120: a338 29bd fc89 963c fb3e 13bc 9e94 49bc
00000130: c7a2 55bc f11a ecbc 8ac4 b03b 7b80 10bd
00000140: c8b5 a13c c13c b73b 7881 1cbd 2e93 933c
00000150: eddf c1bc e32a 553b 83a6 803c 3795 94bb
00000160: 4633 033c 5c7e 053d b329 17ba 35ec aa3c
00000170: f920 c43b d529 8dbc df1a fcbc e24c 47bc
00000180: 1626 a63c d805 ed3b 2411 643c f316 6a3c
00000190: a176 d73c 6177 9cbc 825c 7a3c ed57 7e3c
000001a0: 2754 e0bc 4d9c 0dbc 78e6 dabc 9303 5fbc
000001b0: a90f 7b3c 6483 c43b 7391 1fbd 1459 fb3c
000001c0: e6c0 d83c 709c 9dbc 71ae 383c 3a73 9e3c
000001d0: 84d0 d23c 48ef e1bb e68c 163c 0598 c73c
000001e0: a5d5 96bc a043 babc 78b4 dcbc 6048 08bd
000001f0: 507a 213d 97f5 233c c3f1 92bc 872e c4bc
00000200: 4a94 6f3c 397c efbb aded 07bd 52b6 083c
00000210: 7afb 91bc ec74 0e3d c024 19bb aa37 73bc
00000220: 468c 0d3d 1bcc 06bd 82de 9c3c ef3e 46bc
00000230: f951 353c 1ac4 07bd de90 10bd f1ac ebbc
00000240: 1e1f 40bd a367 37bd b187 0e3c e7f7 cfbc
00000250: 665d 82bc 5ee0 813c c4c4 3abc 4c33 043d
00000260: 1445 febb 4ba8 c93b f6da bebc 7d15 c0bc
00000270: 71fb 1fbc 52a4 e4bc 768b e2bc 27a7 a7bc
00000280: 8eee 1e3d d84f 0dbd 9dfa 053d 60f0 063d
00000290: d927 9a3c 0fd2 8bbc fd07 ca3a c17f 0bbc
000002a0: 8b18 df3c aed2 44bc c6a1 b03c fa15 9b3c
000002b0: 6175 a5bc 5609 fdbb 8197 4f3c e7c3 8abc
000002c0: ae85 0abc eeeb 833b 3cd1 f9bc b3d9 6cbc
000002d0: 607b 433c af71 aa3b dd60 85bc 9a13 94bc
000002e0: 3987 94bc 7b7b bdbc 6e1e e03c 3ae6 16bd
000002f0: f4e7 6f3c 2b27 febc 1617 1ebd 8585 913b
00000300: af84 05bc a888 393b 1596 693c ca8f d8bc
00000310: 945b 043d fffc 273d 1efd 063d 9425 10bd
00000320: 8437 473b c335 d83c 6f4d 82bb ad53 67bc
00000330: 0ace 14bd e298 bfbc ca9f 193d fbf4 193b
00000340: a3a4 9b3c aa9d 9c3a c7c7 12bd 9c7f d0bc
00000350: d0cf d8bc 5254 263c c2cf c13b d396 71bc
00000360: 1ded c0bb 3177 2fbd fc93 813c 1768 f23c
00000370: 1dea fcbc 0ad2 fcbb 0ab1 13bd 24e6 093d
00000380: 2920 743c e2a5 48bb f196 4a3d 6ff6 273d
00000390: 58cc 15bd 985e d43c 108a 2e3d 16bf 3f3d
000003a0: a0ee 4f3d 2457 6aba 7de8 1c3d ebcb 7d3c
000003b0: 15d6 843d 3c90 883c 90e9 573d f5a4 163d
000003c0: c8e1 bbbb 943d 163c 8ccf 083d 93a9 15bc
000003d0: 358c 43bc fa02 063d 3c5c e13c 08c7 ebbb
000003e0: 52b3 6abc 59ff 6fbb 3b1e 36bd 9df4 93bc
000003f0: 08a3 2d3c 4c27 8a3c a22c 083d 232e c93b

fc1.bias f4 [120]
-0.009326887 -0.009352112 -0.015531084 -0.01015785 0.07295068 0.03527119 0.013995787 -0.016129257
-0.028240029 0.011281463 0.17167549 -0.027070245 -0.03626881 0.0031282604 0.084598914 0.07906218
0.039039534 0.031375058 -0.010905303 -0.03479649 -0.04159161 0.22269203 -0.018822562 -0.004240302
0.0034610536 0.013451506 0.034073528 0.07512747 -0.03838083 0.0006718256 -0.016685994 -0.0012514672
0.0026417389 -0.03121647 -0.032611713 -0.036746282 0.017917193 0.17579159 -0.012672737 -0.010875056
0.036715824 0.2820347 0.009481816 -0.023180729 -0.03565415 0.022499451 -0.021477904 -0.05527281
0.0307041 0.024048232 0.0009793912 -0.022709884 -0.045040384 0.025466477 0.10077338 -0.01616981
-0.013230245 -0.030207338 0.068297036 0.030435747 -0.043644577 -0.00524255 -0.060181558 0.016950225
-0.03614518 -0.01716957 0.08719601 0.07030085 -0.01347685 0.024865665 0.004938588 -0.0014475464
0.0035332409 0.009785075 -0.035796292 -0.05021935 0.0021451046 -0.027964802 0.20811196 0.013740178
-0.033875007 0.09258448 0.0046517947 0.101508036 -0.013302019 0.011287036 -0.011308514 -0.02246348
0.14461064 0.0302473 0.0909937 0.042032473 -0.020690242 0.13642241 -0.002509264 -0.0131817395
0.13941552 0.0002308976 0.037271664 0.0037117994 -0.0011972194 0.3168923 0.099335946 0.00663551
0.11170116 0.04321056 0.16343658 0.01811229 -0.0059455056 -0.03482875 -0.008180741 0.1569228
-0.04029417 -0.030229758 0.09566557 0.00069306744 0.05831967 -0.048972633 0.019323517 0.0398959
00000000: cdcf 18bc 9a39 19bc 1676 7ebc 1c6d 26bc
00000010: 2b67 953d 8678 103d 964e 653c 8121 84bc
00000020: a257 e7bc e3d5 383c b3cb 2f3e 6bc2 ddbc
00000030: 9b8e 14bd 8003 4d3b 3242 ad3d 5aeb a13d
00000040: ebe7 1f3d 2283 003d 28ac 32bc c486 0ebd
00000050: f75b 2abd 6109 643e c631 9abc 3bf2 8abb
00000060: d8d2 623b b563 5c3c af90 0b3d 6edc 993d
00000070: 3835 1dbd 741d 303a 11b1 88bc 4508 a4ba
00000080: 0621 2d3b afb9 ffbc dc93 05bd 4583 16bd
00000090: 14c7 923c b602 343e 50a1 4fbc 4a2d 32bc
000000a0: 5563 163d da66 903e 9e59 1b3c 83e5 bdbc
000000b0: 160a 12bd c550 b83c 6ef2 afbc be65 62bd
000000c0: 2a87 fb3c cc00 c53c ea5e 803a 140a babc
000000d0: 447c 38bd 139f d03c 4662 ce3d 8d76 84bc
000000e0: abc3 58bc 6175 f7bc 51df 8b3d 6354 f93c
000000f0: a8c4 32bd b2c9 abbb f080 76bd 33db 8a3c
00000100: f80c 14bd 33a7 8cbc d293 b23d e4f9 8f3d
00000110: 02ce 5cbc 14b3 cb3c e1d3 a13b 99bb bdba
00000120: f28d 673b 9451 203c 229f 12bd ceb2 4dbd
00000130: e294 0c3b 7116 e5bc 4d1b 553e 7c1e 613c
00000140: 85c0 0abd ef9c bd3d 156e 983b 72e3 cf3d
00000150: b6f0 59bc 43ed 383c 5847 39bc 5505 b8bc
00000160: d014 143e 30c9 f73c e85a ba3d 3e2a 2c3d
00000170: 957e a9bc 51b2 0b3e 7772 24bb 39f8 57bc
00000180: f1c2 0e3e 1a1d 7239 2caa 183d a941 733b
00000190: 04ec 9cba b53f a23e a570 cb3d b16e d93b
000001a0: 94c3 e43d 8efd 303d eb5b 273e 3a60 943c
000001b0: 84d2 c2bb 97a8 0ebd 8408 06bc 5fb0 203e
000001c0: 800b 25bd 66a4 f7bc 4fec c33d f8ae 353a
000001d0: 9be0 6e3d 8797 48bd 5a4c 9e3c e269 233d

fc2.weight f4 [84, 120]
-0.049400836 -0.08507484 0.0015255387 -0.060183547 0.03858151 -0.06514377 0.072724864 0.17058505
0.04088547 -0.0852672 0.2370411 -0.09780623 -0.05484482 -0.022047933 0.06489689 0.04609959
0.09658778 0.027416809 -0.04374504 0.066718906 0.043544848 0.42282072 0.03422199 0.07711925
-0.06019666 0.052212883 0.08657505 0.012480479 -0.07782392 0.10194587 0.029539999 0.099109165
0.045663368 0.008971859 0.10886115 -0.051296487 -0.051681053 0.07232486 0.057510868 0.008311669
0.20961528 0.37529403 -0.119945385 -0.058295973 -0.044133913 0.22734305 0.038788572 -0.06462636
-0.0536135 0.10312696 -0.05882725 0.07620949 0.05880717 -0.10437363 -0.055140287 -0.05412594
0.05311891 0.036701184 0.2908074 0.052062232 -0.011092236 0.08592292 -0.0498343 -0.019404864
-0.022581317 -0.022892915 -0.11038955 0.2212384 0.016310014 0.18285228 -0.031944074 0.19033062
-0.08531132 0.14505005 0.09424201 0.0014915902 0.10210995 0.12170566 0.1195493 0.028550856
-0.07248826 -0.0020274827 0.07660208 -0.025576934 -0.08406858 -0.0022847503 -0.10972249 0.052590325
0.09408315 -0.061008364 0.016709935 -0.22753891 -0.08736985 -0.01368984 0.030539028 0.050212502
0.31074607 -0.082603484 0.20557505 -0.06056069 0.13115856 0.32928583 0.17040518 -0.0093036555
0.20811908 0.18510899 0.13679773 0.07111801 0.21530524 0.06912754 -0.048441764 0.06734878
-0.0035904911 -0.077069744 -0.0771284 0.046724807 0.042710025 -0.10175601 -0.060773537 0.06666358
0.08571057 0.044495773 0.050901107 0.0931464 -0.14724386 0.40271026 0.22994077 0.229171
-0.060571447 -0.04104241 0.028251864 -0.020467222 -0.09479732 0.0011623217 0.3420638 -0.052592747
-0.17908944 -0.11891545 -0.016554074 0.051920887 0.048259877 0.018475743 -0.032462355 0.080006085
-0.11463211 -0.0903199 0.04838027 0.035910733 0.03559946 -0.055032786 -0.07729632 0.1941342
-0.021512145 -0.037031688 -0.07132189 0.007883409 0.08429289 0.010780695 0.059429314 0.07729578
0.29941335 0.46442854 0.09929448 0.25345927 -0.023989249 0.1488643 -0.017921187 -0.058791418
0.04873052 0.052239012 0.05892682 0.021939248 -0.054615047 0.1749148 -0.040846594 0.009202289
0.10056086 -0.10420024 0.1669343 0.12419631 0.14049932 0.096574575 -0.06441482 0.046863955
-0.09766689 -0.020711226 0.032970358 -0.05925427 0.07956831 0.25345612 0.1111465 0.2838225
0.026386434 0.15747373 -0.12328063 -0.10451562 0.07734444 -0.0077314232 0.44204795 -0.033282775
-0.023072366 -0.17185284 0.0066671977 0.094040595 0.020931209 -0.14196971 0.0072173406 0.052039716
-0.14610256 -0.07177687 0.13685173 -0.110399365 0.043020267 0.00715836 0.06659954 0.05964366
0.42536023 -0.008895283 0.47386968 0.05135645 0.06968802 0.3152096 0.30604762 0.12892954
0.35269797 0.29087073 -0.04765477 -0.016500833 -0.040471833 0.10451693 -0.069436505 0.26281735
0.028661488 0.06646534 0.26277256 -0.07573071 0.13287218 0.03138291 0.0112729855 -0.0955623
-0.023473743 0.072413035 0.036011208 -0.11477994 0.083264165 0.081013456 0.07387938 0.22197583
-0.022338942 0.008507424 -0.023224026 -0.09709274 0.042220265 -0.07513113 0.1699893 0.07423259
00000000: 8858 4abd b83b aebd 96f4 c73a 0683 76bd
00000010: a507 1e3d 196a 85bd c6f0 943d d9ad 2e3e
00000020: 8677 273d 92a0 aebd e7ba 723e a24e c8bd
00000030: f6a4 60bd de9d b4bc a9e8 843d ecd2 3c3d
00000040: d0cf c53d 3799 e03c 002e 33bd eca3 883d
00000050: 155c 323d f57b d83e 5b2c 0c3d b3f0 9d3d
00000060: c690 76bd 2ddd 553d 434e b13d ec7a 4c3c
00000070: 2662 9fbd ffc8 d03d defd f13c bff9 ca3d
00000080: 8309 3b3d b4fe 123c 98f2 de3d 441c 52bd
00000090: 83af 53bd 0e1f 943d 8490 6b3d ab2d 083c
000000a0: 63a5 563e 8a26 c03e eda5 f5bd c2c7 6ebd
000000b0: c3c5 34bd 9ecc 683e c4e0 1e3d d35a 84bd
000000c0: d499 5bbd 3a34 d33d d8f4 70bd b913 9c3d
000000d0: c9df 703d d7c1 d5bd c8da 61bd 29b3 5dbd
000000e0: 3793 593d fb53 163d b5e4 943e 353f 553d
000000f0: 36bc 35bc 5bf8 af3d 0d1f 4cbd f3f6 9ebc
00000100: 74fc b8bc ec89 bbbc eb13 e2bd 528c 623e
00000110: 949c 853c a13d 3b3e cad7 02bd 08e6 423e
00000120: b4b7 aebd 0088 143e f401 c13d 7681 c33a
00000130: 051f d13d d140 f93d 43d6 f43d 7ce3 e93c
00000140: ba74 94bd 84df 04bb 8de1 9c3d b886 d1bc
00000150: 262c acbd c0bb 15bb 2fb6 e0bd f468 573d
00000160: abae c03d e8e3 79bd 46e3 883c f6ff 68be
00000170: f7ee b2bd 5a4b 60bc fc2c fa3c a0ab 4d3d
00000180: 1c1a 9f3e 042c a9bd 4482 523e 7c0e 78bd
00000190: 6e4e 063e 2798 a83e b27e 2e3e 5c6e 18bc
000001a0: 2b1d 553e 368d 3d3e b414 0c3e 52a6 913d
000001b0: fa78 5c3e bd92 8d3d df6a 46bd 28ee 893d
000001c0: 724e 6bbb bed6 9dbd 7ff5 9dbd 8362 3f3d
000001d0: b5f0 2e3d 7465 d0bd aced 78bd ea86 883d
000001e0: 0689 af3d 3341 363d ae7d 503d 8ac3 be3d
000001f0: 18c7 16be 0a30 ce3e 9875 6b3e cdab 6a3e
00000200: c419 78bd 161c 28bd 7470 e73c e0aa a7bc
00000210: 1925 c2bd 0b59 983a fd22 af3e 7e6b 57bd
00000220: 3963 37be f289 f3bd 699c 87bc ffaa 543d
00000230: 26ac 453d 715a 973c 3ff7 04bd 3bda a33d
00000240: 3dc4 eabd a4f9 b8bd 642a 463d 2217 133d
00000250: bdd0 113d 0f6a 61bd 884d 9ebd 1ecb 463e
00000260: 3d3a b0bc 8aae 17bd 3611 92bd 6a29 013c
00000270: c0a1 ac3d 83a1 303c 276c 733d 404d 9e3d
00000280: b54c 993e 94c9 ed3e e85a cb3d 6ac5 813e
00000290: 1a85 c4bc e26f 183e 74cf 92bc 45cf 70bd
000002a0: a799 473d 93f8 553d 405d 713d f0b9 b33c
000002b0: 07b4 5fbd de1c 333e c24e 27bd 33c5 163c
000002c0: daf2 cd3d ef66 d5bd d3f0 2a3e a35a fe3d
000002d0: 0edf 0f3e e4c8 c53d ebeb 83bd 6bf4 3f3d
000002e0: 9405 c8bd 97aa a9bc ed0b 073d 9bb4 72bd
000002f0: b6f4 a23d 00c5 813e c7a0 e33d 2f51 913e
00000300: 5d28 d83c cb40 213e 8e7a fcbd 490c d6bd
00000310: c366 9e3d e157 fdbb 1c54 e23e 8553 08bd
00000320: 4202 bdbc 31fa 2fbe 8278 da3b 5b98 c03d
00000330: ed77 ab3c 8260 11be 717f ec3b 9927 553d
00000340: e99b 15be c0ff 92bd dc22 0c3e 1019 e2bd
00000350: 0536 303d ad90 ea3b 5765 883d e94c 743d
00000360: d1c8 d93e 85bd 11bc 0c9f f23e 245b 523d
00000370: 98b8 8e3d 2763 a13e 46b2 9c3e 1b06 043e
00000380: d494 b43e 02ed 943e a631 43bd c12c 87bc
00000390: cbc5 25bd f90c d63d ba34 8ebd ff8f 863e
000003a0: 7fcb ea3c fb1e 883d 208a 863e b418 9bbd
000003b0: a50f 083e 5e8b 003d 54b2 383c 2bb6 c3bd
000003c0: 024c c0bc 494d 943d 7d80 133d bf11 ebbd
000003d0: 6786 aa3d 62ea a53d 134e 973d a24d 633e
000003e0: 2800 b7bc b962 0b3c 5040 bebc 8fd8 c6bd
000003f0: 28ef 2c3d 5ade 99bd ad11 2e3e 4207 983d

fc2.bias f4 [84]
0.43842742 0.2258894 0.465435 0.677477 0.61571825 0.29613152 0.480219 0.4945082
0.59536606 0.7728832 -0.029950846 -0.009586058 -0.09523578 -0.01560345 -0.13666344 -0.070458785
-0.11038337 -0.09506675 0.0009239965 -0.1286636 -0.04646933 -0.02913377 -0.07892413 -0.078147106
-0.10722587 0.01018525 -0.03259198 -0.06757474 -0.10105826 0.005738367 -0.048100043 -0.012376064
-0.07620508 -0.10147701 -0.080573454 -0.051005423 -0.03538402 -0.09503987 -0.026121935 0.0019900692
-0.09606103 -0.025193267 -0.11035576 -0.049027126 -0.11330765 -0.13199398 -0.04933434 -0.006639041
-0.0013305144 -0.1469051 -0.13941424 0.02136696 0.013970643 -0.055551413 -0.017750518 -0.05145393
-0.015232534 -0.14444794 -0.12308433 0.006409615 -0.12824138 -0.08508051 -0.069871575 -0.09376154
-0.04013778 -0.13331255 -0.025528084 -0.10076128 -0.00798989 -0.10458726 -0.14675012 -0.13763885
-0.09725472 -0.12411741 -0.041686714 -0.047949582 -0.050116777 -0.043821216 -0.020981012 -0.056448236
-0.062426616 -0.02894474 -0.09191583 -0.1489373
00000000: 8f79 e03e 8d4f 673e 7f4d ee3e 226f 2d3f
00000010: b69f 1d3f 8d9e 973e 44df f53e 2e30 fd3e
00000020: e969 183f acdb 453f 7a5b f5bc d70e 1dbc
00000030: fa0a c3bd 9da5 7fbc 80f1 0bbe b24c 90bd
00000040: ad10 e2bd 5bb2 c2bd 5b38 723a 64c0 03be
00000050: a056 3ebd f2a9 eebc f9a2 a1bd 970b a0bd
00000060: 3d99 dbbd 09e0 263c 2b7f 05bd a064 8abd
00000070: a2f7 cebd e908 bc3b 8d04 45bd fac4 4abc
00000080: 6911 9cbd 2ed3 cfbd b203 a5bd 10eb 50bd
00000090: d6ee 10bd 43a4 c2bd abfd d5bc d26b 023b
000000a0: a5bb c4bd 1c62 cebc 3302 e2bd abd0 48bd
000000b0: d70d e8bd 6e29 07be ce12 4abd 508c d9bb
000000c0: a864 aeba 4a6e 16be 9bc2 0ebe c309 af3c
000000d0: 20e5 643c e189 63bd 8969 91bc 5bc1 52bd
000000e0: e191 79bc 29ea 13be a313 fcbd bf07 d23b
000000f0: b551 03be b13e aebd d418 8fbd 0d06 c0bd
00000100: 8367 24bd 1683 08be 4620 d1bc ee5b cebd
00000110: 07e8 02bc d831 d6bd aa45 16be 33f1 0cbe
00000120: 7c2d c7bd 4531 febd b0bf 2abd c866 44bd
00000130: 4047 4dbd e07d 33bd 5fe0 abbc 4436 67bd
00000140: 0db3 7fbd 851d edbc 5e3e bcbd 0583 18be
