Saved_Train_Dict/lenet5_regular_epoch_1.pt (torch, 545423 bytes, 8 tensors)

conv1.weight f4 [6, 1, 5, 5]
000000 61 61 17 3e e8 f8 cd 3d 89 fd 5a 3c 46 a1 ad 3e
       0.14783241 0.10057241 0.013366112 0.33912104
000010 a6 d6 97 3e f2 23 b4 3d 3f 8c 95 3d 5d 49 0f 3e
       0.2965595 0.087959185 0.073021404 0.1399283
000020 fd 60 c1 3e a3 ba b5 3d 64 c0 5d 3e 6c 0d cf 3e
       0.3776931 0.08873489 0.21655422 0.40439928
000030 17 31 e8 3e 8b a7 9e 3d 95 e9 97 3e e5 53 63 3e
       0.45349953 0.077468 0.29670396 0.22199972
000040 83 95 97 3e af 3f 84 3e 54 b4 07 3e 78 28 3c 3c
       0.29606256 0.25829837 0.13252383 0.011484258
000050 ea 39 47 3e 71 d5 42 3e 4d 8d 6c 3e fb 74 94 3e
       0.19455686 0.19026734 0.23100777 0.289955
000060 e0 b3 a1 3d 29 7a c9 bd d7 0b a6 3d 39 21 5a be
       0.078956366 -0.09837753 0.08107727 -0.21301736
000070 d6 97 04 3e 45 81 09 3e d7 8e 3c 3e bc bd 5a 3d
       0.12948546 0.13428219 0.18413864 0.0534036
000080 6c 8d 51 be ab d5 36 be 9a 4e 4a 3e ae d3 85 bc
       -0.20464104 -0.17854945 0.19756547 -0.016336288
000090 93 cf 00 3e 82 44 2e be 6d a8 3e be 87 68 17 be
       0.12579183 -0.17018321 -0.18618937 -0.14785968
0000a0 5b 5f d7 3d 8b 59 11 3e 95 84 a7 bd af dd 07 bd
       0.105162345 0.14194314 -0.08179585 -0.0331704
0000b0 14 62 b3 3a 57 d5 54 3c f2 5c d7 bd 3e f8 83 bc
       0.0013685846 0.012990317 -0.10515775 -0.016109582
0000c0 ca 68 e4 bd b5 c1 c5 3d 6b ea 1e 3c 7d d7 81 bd
       -0.111527994 0.09656087 0.009699444 -0.06339929
0000d0 c7 f5 5a 3c b4 8f 25 be 5e dc 97 bd b6 5a d5 3b
       0.013364262 -0.161681 -0.074150786 0.0065110577
0000e0 e9 1c f8 bd 5d a2 2d 3e 18 92 84 3d 39 85 8c bd
       -0.12114889 0.16956468 0.06473178 -0.06861348
0000f0 27 a8 41 be cb 7c 38 be 11 4b 5d 3d 41 eb 23 bd
       -0.18911801 -0.18016355 0.054026667 -0.040019277
000100 92 4d 75 3d 8b e3 26 bd 98 d4 45 be 12 c5 d4 bd
       0.05988843 -0.040744346 -0.1931938 -0.10389151
000110 83 df 30 3e fb 94 d2 bd 07 f0 39 be de 68 cc 3d
       0.17272763 -0.10282322 -0.1815797 0.09980939
000120 1f 2f 74 bd 31 d0 d8 3d 33 9e 90 bd 0d 58 49 bd
       -0.05961525 0.10586584 -0.07061424 -0.049156237
000130 0e b6 1a 3e a6 98 e1 bd d1 b3 77 be 55 c5 85 be
       0.15108511 -0.110154435 -0.24189688 -0.26127115
000140 fc f2 15 3e 17 d1 30 3d 53 de 09 be fb a3 32 be
       0.14643472 0.043168154 -0.13463716 -0.17445366
000150 ce 03 30 be d3 31 26 3e e6 6c 23 3e 88 ec 6f 3d
       -0.17188951 0.16229944 0.1595951 0.058575183
000160 a0 0a 06 be 64 59 d7 bb e7 ce 7f 3e 53 26 8c 3d
       -0.1308999 -0.0065719355 0.2498127 0.06843247
000170 a4 41 58 3e 4e 74 5b bd 5c 8c 4c be 31 3d 49 3e
       0.2111879 -0.053577714 -0.19975418 0.19652249
000180 bf c5 85 3e 64 3d f8 bd 91 ca 37 be 6e 48 5c bd
       0.2612743 -0.12121084 -0.17948367 -0.05378001
000190 a5 73 43 3e 02 ce 4c 3e 27 8f f5 3d 16 07 b5 3b
       0.19087084 0.2000046 0.11990195 0.0055245264
0001a0 1a 42 fd 3c 82 5d 43 3e c9 34 00 bd 18 71 40 bd
       0.030915309 0.19078639 -0.03130034 -0.046982855
0001b0 e4 f7 7f 3e bc dd 14 3e a3 28 e1 bd fb 90 64 3c
       0.24996907 0.1453771 -0.10994079 0.013950582
0001c0 1e 68 b1 bd 8f a0 c0 bd 41 19 5d 3d 49 4a 2c be
       -0.08662437 -0.09405624 0.053979162 -0.16825213
0001d0 d3 e9 a1 bc 2b 78 a1 3d d7 15 a5 3b f5 5a 2d be
       -0.019764816 0.07884248 0.005038004 -0.16929229
0001e0 d3 2c 38 bd a1 b3 55 3e c6 5f 64 3e 5b 95 ca 3d
       -0.044964623 0.20869304 0.2230216 0.098917685
0001f0 39 d7 cc 3d 45 2d 29 3e e1 15 e7 bd 20 e1 31 3e
       0.10001988 0.16521175 -0.1128347 0.17371035
000200 72 c8 92 3e 43 fe 68 3d 24 d6 b0 3d b5 1e 3e 3e
       0.28668553 0.056883108 0.08634594 0.18566401
000210 7b 18 09 3e 11 75 4f 3e 4f da 9c 3e 9b 78 86 3e
       0.13388245 0.20259501 0.30635306 0.2626389
000220 d7 d4 a9 bd 29 64 98 3e 98 cf 44 bd 80 6b c4 bd
       -0.08292549 0.29763916 -0.04804954 -0.095908165
000230 f4 50 ea bd 8c ce 41 3e 99 3f a5 3d da 52 3d 3e
       -0.11441222 0.18926448 0.08068771 0.18488637
000240 46 35 b6 bd 55 ba 27 be 2f 7a 84 3c 90 ae bb 3d
       -0.0889688 -0.16379674 0.016171543 0.091641545
000250 b0 56 71 bd 1e 6d e4 3c
       -0.058920562 0.027884062

conv1.bias f4 [6]
000000 00 03 39 3d 8f 67 33 3e ab 68 e2 bd 8e 6d db 3d
       0.045168877 0.17519973 -0.1105512 0.10714255
000010 e6 53 12 bb 62 e5 80 ba
       -0.002232784 -0.0009833986

conv2.weight f4 [16, 6, 5, 5]
000000 34 a7 30 3c 72 c7 ba bc a1 4f a9 bd 74 9d a1 bd
       0.010782052 -0.022800181 -0.08267141 -0.0789136
000010 0d 24 3d ba 3d 63 07 3d f7 66 6c bc 79 75 ff bd
       -0.000721515 0.033053625 -0.014428846 -0.12473578
000020 89 34 db ba d2 e5 0e bd f1 c7 a6 bd f5 99 fc bd
       -0.0016724031 -0.034887142 -0.081436045 -0.123340525
000030 41 da 35 bc 09 57 2d 3c 88 19 13 3d de 20 18 bc
       -0.011099399 0.010579833 0.03591302 -0.00928518
000040 e4 e9 bb bc 66 bf 4f 3d d0 96 14 3e e8 12 ca 3d
       -0.022938676 0.05071964 0.14510655 0.09866887
000050 f1 f9 9a bd c9 fa 47 bd c0 01 26 3d 24 49 f8 3c
       -0.07567204 -0.04882315 0.040529013 0.030308314
000060 23 06 46 bc 24 90 fa 3a 5f 8a e2 bc e3 e3 72 bd
       -0.012086424 0.0019116444 -0.027653871 -0.05929936
000070 2a a6 19 bb 0a 59 1d bd 3b aa d4 bc 43 2c bd 3c
       -0.0023444989 -0.038414992 -0.025960078 0.023092395
000080 2d af cc 3d 9e 69 4f bd e6 f2 f3 3c 47 8d 72 3d
       0.0999435 -0.050637834 0.029778909 0.059216764
000090 aa 44 d2 3d 2f 67 be 3c f4 45 f7 3c f1 e5 4e bd
       0.10267003 0.023242561 0.030184723 -0.050512258
0000a0 1a 76 4e 3c b7 d0 2d 3a 23 02 ad 3d ef 7a f5 bb
       0.0126014 0.0006630527 0.08447673 -0.0074914615
0000b0 0a f4 91 3d 2f c6 c2 3b 21 4d 4a 3d 86 04 7a 3a
       0.07126625 0.0059440355 0.049389962 0.0009537417
0000c0 4e 98 6a bb f1 50 b7 3c 8e be 9a bd 88 01 35 3d
       -0.0035796347 0.022377463 -0.07555877 0.044190913
0000d0 8f a0 d9 3c 44 67 9f bb ba 17 32 bb 64 8f 8a bd
       0.026565818 -0.004864605 -0.0027174787 -0.06765631
0000e0 cd 82 36 3c 7b 96 b9 bc e5 71 62 3c 5d 79 a5 bc
       0.011139584 -0.022654762 0.0138211 -0.020199472
0000f0 24 67 a3 3d 31 2a 7e bd a7 1e 15 39 66 cc 93 3b
       0.07978657 -0.062051956 0.00014221166 0.00451045
000100 23 d6 32 bc b6 49 8e bd f3 31 98 bd be c8 da bc
       -0.010915312 -0.06947653 -0.07431402 -0.02670705
000110 f0 63 ac 3c b1 95 23 bd 29 26 d9 3c 85 29 c5 3c
       0.021043748 -0.03993768 0.026507454 0.02406765
000120 1b 53 1d bd f4 d3 61 3d de 49 a3 bc de 92 11 bd
       -0.038409334 0.055133775 -0.019932684 -0.035540454
000130 6c 11 77 bd 74 97 7a bd 20 90 27 bd 4b cb 81 3d
       -0.06031935 -0.061179593 -0.040908933 0.06337603
000140 1f 81 5b 3d d0 47 25 bd b8 86 8f ba c0 ab 36 bd
       0.053589936 -0.04035169 -0.0010950183 -0.044597387
000150 05 38 89 3c 6d 05 a6 3d e8 a5 6a 3c 7b c3 55 3d
       0.016750345 0.08106504 0.014321782 0.052188378
000160 0e 4b 86 bd 28 29 92 3c 03 cd 86 3d fe 61 88 3d
       -0.06557284 0.01784189 0.06582072 0.066593155
000170 d4 62 80 3c 50 d2 a9 bb 63 56 94 bc 1a 11 85 bc
       0.015672125 -0.005182542 -0.018107599 -0.016243506
000180 00 01 a8 3d 73 10 94 3b 33 8c 4d 3d 1e d9 d1 3a
       0.08203316 0.0045185625 0.050182533 0.001601014
000190 bf bd 33 3c 1b 4c 76 3d 98 33 35 bd d0 50 30 bd
       0.010970532 0.060131174 -0.044238657 -0.04304582
0001a0 43 8d 44 3d da ba bb 3c f6 62 91 3a 1e da 8d bd
       0.04798628 0.022916246 0.0011092115 -0.06926368
0001b0 c3 e8 0c 3d 9e 5c c0 3c fa bf 03 3c f4 8b 46 bc
       0.034401666 0.023481663 0.008041376 -0.012118328
0001c0 f1 f8 dd bc 80 56 5a 3d 1c f0 1f bd f7 73 2a bc
       -0.027096244 0.05330515 -0.039047346 -0.010403625
0001d0 1e 7c ae 3c 59 be 93 bd ce 0d 4d bd 75 90 98 3b
       0.021299418 -0.0721404 -0.050061993 0.0046558925
0001e0 94 09 d1 3c 9e 47 1a bd 8d 42 86 3d 48 a0 c4 bb
       0.025517263 -0.037665956 0.06555662 -0.0060005523
0001f0 83 67 40 bd 08 2d 9d 3d d5 60 29 3d e5 97 97 bd
       -0.046973716 0.07674605 0.04135211 -0.074020185
000200 64 69 52 bd 7b 7f a5 bc 7a 79 6a bd 1c 2a e5 bd
       -0.05137004 -0.020202389 -0.057244755 -0.11189672
000210 63 9d f5 3c d3 be 38 bd 1f a4 95 3c 9a f0 08 bd
       0.029982274 -0.04510386 0.018266736 -0.03343258
000220 ff 1a 68 3b aa 28 be bc 80 4b 9a 3d 60 5d 04 3d
       0.0035416482 -0.02321275 0.07533932 0.03231561
000230 1d 36 59 bd b3 4f 7a 3d dc 57 0b bd dc 10 89 3c
       -0.053030122 0.061111163 -0.034019336 0.016731672
000240 c5 c8 86 3d 33 9f 85 bd 5f f8 e7 bc 3e 69 22 3d
       0.065812625 -0.065245055 -0.028316675 0.039651148
000250 7b 30 ac 3d fb 48 59 3d 58 d5 9e 3d 7c 61 f4 3c
       0.084076844 0.053048115 0.07755536 0.02983164
000260 50 e1 ac bc bb 70 41 bd 63 48 71 bd 3e d6 76 bd
       -0.021103531 -0.04722665 -0.058906924 -0.06026291
000270 aa b8 9b bd 62 82 d8 bd bb c2 90 bb 8d 71 01 3c
       -0.07603581 -0.105717435 -0.004417745 0.007900608
000280 b3 9c 3b 3d 91 a6 8c bd 68 5f 8a 3d 6e 5a 8f 3d
       0.045803737 -0.068677075 0.067564785 0.0699967
000290 b7 e8 52 3c 0f e3 10 3d d5 8f cc 3c a9 de 76 bc
       0.012872866 0.03537279 0.024970928 -0.015067735
0002a0 dc 27 5f 3a ef 3c c5 3d a4 c9 4d 3d 01 6b 9e 3c
       0.00085127144 0.09630763 0.050241128 0.019338133
0002b0 fa 50 9f bd 29 43 4d bd c2 ac 92 3d a0 0d 7f bd
       -0.07779117 -0.050112877 0.07161857 -0.062268853
0002c0 fe 0a 8e 3d e8 c1 11 bd 0f 0c 84 3d 7f 52 a9 3d
       0.0693569 -0.035585314 0.064476125 0.08267688
0002d0 5a 23 35 3d 19 9c 17 bd 4a e9 2e 3d fb 7a 80 3c
       0.044223167 -0.0370141 0.04270295 0.015683642
0002e0 c5 cd 94 3d 51 ac 4c bc 8f 10 1f bc 3c 99 b5 bb
       0.0726581 -0.012492255 -0.009708538 -0.0055419486
0002f0 6a c3 f9 3c c6 78 26 bd b5 35 80 bc e3 81 97 bd
       0.030488688 -0.040642522 -0.01565061 -0.07397821
000300 ec a5 5b 3d 04 7e 90 3c 27 73 50 3d e9 77 cd 3b
       0.053625032 0.017638214 0.050891068 0.006270398
000310 be 06 36 bd a7 12 8c 3d e0 7d b9 bb 7a d1 9f 3d
       -0.044440024 0.06839495 -0.0056607574 0.07803626
000320 12 fe ba 3a cf dc 9b 3d 94 29 85 3c 83 d4 86 3d
       0.0014266393 0.07610475 0.016255178 0.06583502
000330 59 55 67 bb 2f 62 a7 3c 96 a3 8f bd f6 b3 34 bd
       -0.0035298674 0.02043256 -0.070136234 -0.044116937
000340 a2 a2 54 bb 72 b3 67 bd 30 63 70 3c e9 01 32 bd
       -0.003244557 -0.056567617 0.014672086 -0.043458853
000350 ae 82 ca 39 01 a4 bd 3c f9 6b cd bc f3 d0 ba 3b
       0.00038625806 0.023149492 -0.0250759 0.005701178
000360 28 33 71 bd 8a c2 14 3c fe 65 5d bd c2 72 ee 3c
       -0.058886677 0.009079585 -0.054052345 0.029107455
000370 16 b1 b2 3c 8f 99 8e bc 71 c1 30 bd 7b 37 1c bd
       0.021812957 -0.017407207 -0.04315323 -0.038138848
000380 e6 8d f1 bc db 80 9f bc 03 26 95 3d a8 20 56 bd
       -0.029486608 -0.019470623 0.07282641 -0.052277237
000390 be ef d7 bc dc 5e a9 bc 53 93 56 3d ef d4 32 bd
       -0.026359435 -0.020675115 0.052386593 -0.0436601
0003a0 a8 7e 69 3d 8e bf 5a bd 81 b8 a7 3d 2e b8 31 bd
       0.057005554 -0.053405337 0.08189488 -0.043388538
0003b0 1b a2 97 bd ae c0 81 3d 52 27 94 3d 41 0c 7b bc
       -0.07403966 0.06335579 0.07234062 -0.015322746
0003c0 82 af ec bc b7 b1 56 bd b9 88 a0 bd cc 6a e1 bb
       -0.028892282 -0.052415576 -0.07838578 -0.0068791863
0003d0 b9 bf 18 bc 94 29 e7 3b f0 a5 85 bd 6a bd 10 3d
       -0.009323054 0.007054517 -0.06525791 0.03533689
0003e0 1f 05 6f bc 8c 90 34 bd 71 be c0 bc e3 ff 26 bd
       -0.014588623 -0.044083163 -0.02352831 -0.040771376
0003f0 53 56 5d bd 4e 38 9d bb 0d 61 21 bd 6d 2a ae 3c
       -0.054037403 -0.004797972 -0.039399195 0.021260465

conv2.bias f4 [16]
000000 67 d5 7b 3e 80 64 7d bd 72 ba 00 3e c5 57 c7 3d
       0.24593125 -0.061863422 0.12571123 0.097335376
000010 70 9f 42 3e 51 8b ca bc 52 76 98 3e 8b 32 18 bd
       0.19006133 -0.024724634 0.2977777 -0.037157577
000020 15 39 e5 bd 87 2e 67 bc b3 e1 88 3e 4b dc 4c bd
       -0.11192528 -0.014110214 0.26734695 -0.050014775
000030 b3 6f a9 bd 37 bf a3 3e fc 5f 84 bc 4f 84 c5 bb
       -0.08273258 0.31981823 -0.01615905 -0.0060277353

fc1.weight f4 [120, 1024]
000000 6d af 2e bc 31 7e a5 3c c1 66 b4 3c ee 13 f5 3c
       -0.010661942 0.020201774 0.022021653 0.02991673
000010 14 f5 2a 3b 08 0c af 3c ba 4b fc bc cf 73 f8 3a
       0.002608602 0.021368042 -0.030797828 0.0018955412
000020 51 45 c6 3c 4e 36 d5 3c af ff e6 3b 2b 00 a1 3a
       0.024202975 0.026026871 0.007049523 0.0012283375
000030 72 25 70 bc f2 1f 15 bc 3b ee a7 3c 1f 94 fb 3c
       -0.014657365 -0.009101855 0.02049934 0.030710278
000040 8c 46 96 3c 71 86 81 bc 68 a8 0b bc bf d6 30 3a
       0.018344186 -0.015811177 -0.008524038 0.0006745867
000050 0b 0a 91 3c 63 32 cb bc de 8a 86 bc 7c 6b ae bc
       0.017704984 -0.0248043 -0.016423639 -0.021291487
000060 43 c4 f2 3c 6d d2 12 bb 9b 12 a7 bc 2a c9 cf bc
       0.0296346 -0.0022403256 -0.020394614 -0.025364477
000070 08 7d d7 bc 0e 7c 5b bb 19 4c f0 3c 53 12 a9 3c
       -0.026304737 -0.003349069 0.029333161 0.02063862
000080 0f f9 9f bb 08 55 30 3c 2b b5 fd 3c 0d 27 bf ba
       -0.004881985 0.0107624605 0.030970177 -0.0014583782
000090 e0 d0 ab 3b 90 3f 3c bb 05 b0 fc bc 5b d8 0f 3c
       0.0052434057 -0.002872441 -0.030845651 0.0087796105
0000a0 10 69 bf bc 3b 1c e1 3b fe 58 b4 bc 4f 64 f5 3c
       -0.023365527 0.0068698204 -0.022015091 0.029955057
0000b0 29 59 8c 3b bb 16 bb bb ff 00 6a 3b 30 c8 b5 bc
       0.0042830897 -0.005709497 0.003570616 -0.022190183
0000c0 b8 14 ab bc ea f1 ba bc e3 2a a4 3c b3 17 97 bc
       -0.020883903 -0.022820432 0.020039981 -0.018443918
0000d0 13 a2 83 bc 80 eb 8e 3c db 79 c1 3c 85 ef bc bb
       -0.016068494 0.01744628 0.023617676 -0.0057658576
0000e0 3f bc 38 bc 03 dc bc bc 6e 82 ed 3c a9 43 73 3c
       -0.01127535 -0.023054129 0.028992858 0.014847674
0000f0 50 a7 d3 3c 3b 68 97 3c f9 72 41 bc 2c ef cd bb
       0.025836617 0.018482318 -0.011807197 -0.006284615
000100 bf d7 3e 3c b6 ea 79 bb b8 ec a5 bc a3 c4 2b 3c
       0.011648118 -0.0038134283 -0.020254478 0.010483894
000110 9e f3 26 3b 3e 2d de bb e0 61 6b 3b 68 45 28 3c
       0.0025474797 -0.0067802956 0.0035916492 0.010270454
000120 77 21 59 bc 01 66 ed 3c 06 eb dd 3c 11 9b dc bb
       -0.013252608 0.028979303 0.027089607 -0.0067323525
000130 2c c7 f3 3c e5 66 93 bc f7 7a b0 bc ff 21 ae bc
       0.029758058 -0.0179934 -0.02154301 -0.021256445
000140 67 81 ac bc 93 0a 35 3b e5 3f 33 3c c6 ae b5 bc
       -0.021057798 0.002762471 0.010940527 -0.022178065
000150 2e 99 b4 3c b9 75 cc 3c c5 6e 8f 3c 23 65 b7 ba
       0.022045698 0.024958478 0.017508874 -0.0013991933
000160 3e c8 8a bc bd af 10 3c 5e 3b 5b bc a6 60 9c bc
       -0.016941186 0.008830962 -0.013380853 -0.019089054
000170 ba 81 5e 3c 78 f6 c6 3c 6c 97 6b 3b 4f c5 ee bc
       0.013580734 0.024287447 0.0035948409 -0.029146818
000180 4d 77 21 3c 8b f0 a2 bc 70 a5 8c bb 9e 56 e7 3c
       0.009855104 -0.01989009 -0.0042921826 0.028239544
000190 54 62 1a 3b a7 a5 3f 3b cc 43 e9 3b 56 08 8f bc
       0.0023557143 0.0029243024 0.0071186777 -0.01746003
0001a0 3c 4f b6 bb 06 d7 80 bc aa bd 80 bc 4c d7 6a ba
       -0.0055636447 -0.015727531 -0.015715439 -0.00089584733
0001b0 50 a5 eb 3c 75 68 96 3c 0b ef e3 3c e5 56 bd bc
       0.02876535 0.018360356 0.027823946 -0.023112724
0001c0 62 c3 10 3b 5c 61 a1 3c 8c d6 a1 bc 61 4a 9f 3c
       0.0022089113 0.019699745 -0.019755624 0.019444646
0001d0 c5 4d b2 bc 63 a7 bd bc 70 2b e5 bc dd 93 73 bb
       -0.021765599 -0.023151105 -0.027974814 -0.003716699
0001e0 a8 36 91 bb 4e 05 6c 3a 97 d0 99 bc a4 b4 b1 3c
       -0.0044315644 0.0009003476 -0.018776221 0.021692581
0001f0 29 a1 93 bc 54 1b de bb 3e 07 9b bc 93 b6 9c 3c
       -0.018021183 -0.00677816 -0.018924352 0.019130027
000200 a0 a5 c5 3c b6 31 52 bc a0 12 82 3b 7e 11 6a bc
       0.024126828 -0.012829235 0.0039695054 -0.014286397
000210 1f dd 51 3c 37 d5 d8 3c 9a d1 36 3b bf f1 a2 3b
       0.012809067 0.026468856 0.0027895928 0.004972666
000220 37 8e df 3b c1 79 2e bc e2 49 93 3c 3a e6 6d 3c
       0.0068223733 -0.010649146 0.017979566 0.014520222
000230 89 b5 f4 3c 9c 6c a6 3c 76 ce cc 3c eb c2 a3 bc
       0.029871719 0.02031546 0.025000792 -0.019990405
000240 d4 17 02 3c f1 50 47 bc 3f ce dd 3b dd e7 9b bc
       0.007940251 -0.012165294 0.006768971 -0.01903146
000250 fa d6 ee ba 15 cb 65 bc 78 7d f4 39 0d 27 77 bc
       -0.0018222027 -0.014025469 0.00046632788 -0.015084994
000260 58 3a 45 3c 38 12 d0 3b 62 1f 02 bc 6e cb 8b bc
       0.012037836 0.006349828 -0.007942053 -0.017064776
000270 16 bd 4d 3b b2 90 41 3c de 95 35 bc 4c b0 fc 3c
       0.0031393222 0.011814283 -0.011083094 0.030845784
000280 82 e2 c9 3c bd f3 1a 3c 05 da 8f bb c8 ee 8c bc
       0.02464414 0.009457526 -0.0043900036 -0.017203704
000290 df df 05 bc 9b bd 94 3c da 46 d5 bc 0f 92 bc bc
       -0.008171051 0.018156817 -0.026034761 -0.023018865
0002a0 2e f7 9a 3c b7 55 c0 3c 1f b5 13 bc dd c1 ec 3c
       0.018916693 0.023478372 -0.009015351 0.028901035
0002b0 7e 68 ba 3b 24 d8 85 bc d3 27 5a bc 90 10 c5 bb
       0.005688726 -0.016338415 -0.013315159 -0.0060139373
0002c0 ff e6 40 bc 26 c2 7f 3b c9 da 7f 3b fb 94 d4 3c
       -0.011773824 0.0039025634 0.0039040318 0.025949946
0002d0 1d af 88 bc 36 93 f9 3c 6f 7c ec 3a 7b a1 fb bc
       -0.016685063 0.030465703 0.0018042455 -0.030716648
0002e0 e0 e7 81 bc 3d 22 9b 3c e1 ac f8 bc 46 a7 a4 bb
       -0.015857637 0.018937225 -0.030355873 -0.0050248234
0002f0 10 fa fe 3c cb 9a b9 3c c8 0b 58 bc 1d 4f a8 3c
       0.031125098 0.022656819 -0.013186403 0.020545537
000300 ed 03 5e bc 0b 95 61 3b af 17 90 bc 62 24 4f bc
       -0.013550741 0.0034421112 -0.017589418 -0.012642952
000310 56 33 e4 3b 42 07 8f 3c 73 84 ca 3a fd ff 46 bb
       0.0069641275 0.017459515 0.001545085 -0.0030364983
000320 ec 75 aa bc a6 58 94 bc df 7d aa 3c 3e 97 14 3c
       -0.020808183 -0.018108677 0.020811973 0.009069262
000330 2a 96 e3 3c 77 ac c9 bb 84 0e 69 3c 5d 74 cd bc
       0.027781565 -0.0061545926 0.014224652 -0.0250799
000340 e6 83 65 bb ae cb 9a 3c 5f 39 2a 3b 93 00 cb 3c
       -0.0035021245 0.01889595 0.0025974137 0.024780547
000350 f2 f5 56 bc 7c 31 ec bb b4 3f b7 3c 37 5b 78 bc
       -0.013120161 -0.0072080474 0.022369243 -0.015158466
000360 51 13 45 3c 66 3a c4 3a bc 3f 8b 3b 04 6d be bb
       0.012028531 0.0014971017 0.004249541 -0.0058113355
000370 72 5f f4 39 89 82 dd 3b ef a4 e7 3b 6c aa 0e 3b
       0.0004661042 0.006759946 0.007069222 0.002176906
000380 40 95 99 bc 78 e3 28 3b 47 89 c6 3c ab 74 80 3b
       -0.018747926 0.0025770348 0.02423538 0.003920158
000390 1d fa f0 3c a3 28 a8 bb d2 f2 83 3b 1b 63 f5 bc
       0.029416138 -0.0051317974 0.004026749 -0.029954484
0003a0 7e 65 d6 bc 01 35 99 bc 0c 1a 57 bc c2 80 8a 3c
       -0.026171442 -0.018702032 -0.013128769 0.0169071
0003b0 95 8c 21 3c ac d9 32 bc 1f 0f e5 bc 1b 54 e6 bc
       0.0098601775 -0.010916155 -0.027961312 -0.028116276
0003c0 0b e1 b7 3c 3d 4d ac 3c f1 e8 4e 3c 42 9d ee 3c
       0.022446176 0.021032924 0.01262878 0.02912772
0003d0 af cb 86 3c 84 82 7c 3c 1c 90 49 bc 84 5a 43 3b
       0.016454546 0.015411977 -0.012302425 0.002980859
0003e0 8b 2c af 3c cb eb 46 bc 3e f0 6c bc 98 69 c2 3c
       0.021383544 -0.012141178 -0.014461575 0.023731992
0003f0 ab 72 d1 3c cc ee d9 3c 6b 72 8d bb da 09 9c 3c
       0.025567373 0.026603125 -0.004316618 0.019047666

fc1.bias f4 [120]
000000 09 ef a6 3c fc a0 39 bc 8b 77 04 3c ec ca b0 bc
       0.020377653 -0.011329886 0.008085142 -0.021581136
000010 fc fe 59 3d 9e a0 9f bc 6f 47 b0 3d 55 01 a3 3c
       0.053221688 -0.019485768 0.08607375 0.019898096
000020 fc ae a4 3a 52 4b b8 3c a4 cb ed 39 06 f1 2e 3d
       0.0012564356 0.022496853 0.00045355887 0.042710327
000030 39 d6 b4 bc 1d af 81 3c c6 66 90 3d 1a 77 8b bb
       -0.022074806 0.01583057 0.070508525 -0.0042561414
000040 c3 24 12 3c 8c b9 c6 3c 34 dd 2c 3c 25 86 8c 3d
       0.0089198975 0.024258398 0.010550786 0.068615235
000050 78 f7 b3 bc 49 6c 07 3d 02 83 01 3d f5 a8 d0 3c
       -0.021968588 0.033062253 0.03161908 0.02547119
000060 a6 25 1b 3c ee 34 eb 3d 1f 78 5c bb 80 bf de bc
       0.009469425 0.11484705 -0.0033640934 -0.027190924
000070 95 99 7c 3c 25 88 77 bc 90 a2 a1 3d 3d a2 8d 3c
       0.015417476 -0.015108143 0.078923345 0.017289275
000080 a6 43 9c bc 62 2f aa 3c e8 e5 64 3d 14 bb ff 3d
       -0.019075226 0.020774547 0.05588332 0.12486854
000090 c5 6b 4f 3c 3f df 78 bc b9 b5 11 bc 0a e9 bb bc
       0.012659972 -0.015189945 -0.008893424 -0.02293827
0000a0 6f 0e 21 3c 39 fc 39 bc c4 77 56 bc 19 ae 5d 3c
       0.009830101 -0.0113516385 -0.013090078 0.013530278
0000b0 8e 30 05 bc a2 76 e9 3b c9 d3 84 3d 5f 67 a4 bc
       -0.008129252 0.007124738 0.06485707 -0.020068822
0000c0 e9 bf 66 3c 2a 01 bc 3d 13 b3 19 3e 8a 26 11 3e
       0.014083841 0.091799095 0.15009718 0.14174858
0000d0 79 76 e1 bc 31 80 2f 3a 78 4f 92 3b f7 ae ec bc
       -0.027522312 0.0006694822 0.00446504 -0.028892023
0000e0 53 cf 4e bc f1 b4 8c 3c 50 4d d8 3b 8a 7f 8c 3d
       -0.012622672 0.017176123 0.0066010132 0.06860264
0000f0 55 dc d2 39 8a f3 9d 3b 51 38 1e 3d 20 6e d1 ba
       0.0004021848 0.004820292 0.038627926 -0.0015978254
000100 2d 73 23 3d 2a 95 0e bc 2e 4c 02 3d 6c 0e a8 3c
       0.039904762 -0.008702556 0.03181093 0.02051469
000110 dd 0a ba 3d 06 0f a6 3d 16 40 45 bc f5 1d 3f 3c
       0.09084103 0.08108334 -0.012039205 0.011664857
000120 ae 2e e4 bc c1 09 6a bc f7 3f 1d 3d 37 9b 47 3d
       -0.02785429 -0.014284552 0.03839108 0.04873201
000130 8e 30 a1 3b 5b 9a 0c 3c f0 85 3b 3c 04 cc 1c 3d
       0.0049191182 0.008581723 0.011445507 0.038280502
000140 f4 9b e8 3c 96 c0 91 3c 90 a9 91 bc ed fc 6f bc
       0.028394677 0.017792027 -0.017781049 -0.014647705
000150 30 6e 0f 3c cb ea 09 3c 68 48 af 3c be a3 8c bc
       0.008754298 0.008417795 0.02139683 -0.017167922
000160 a7 cf 83 3c 3c 2f 84 3d c3 e7 90 3c e2 2f 53 ba
       0.016090227 0.06454322 0.017688638 -0.00080561463
000170 e8 21 22 bc 84 69 cf 3c 0c a3 d5 3b 7e 90 01 bb
       -0.009895779 0.025318868 0.006519681 -0.0019769962
000180 bd fb 23 ba b5 77 28 bc 97 a9 f4 3d c9 81 62 bc
       -0.00062554685 -0.010282447 0.11946409 -0.0138248885
000190 a7 c7 4f bc cc 18 87 bc 8f 58 a6 3c 0b 71 66 bb
       -0.012681878 -0.016491316 0.0203059 -0.0035162594
0001a0 11 28 48 3d 74 12 a7 3c 28 c8 9a 3b ec c7 8e bb
       0.048866335 0.020394541 0.0047235675 -0.0043573286
0001b0 b3 ab 37 3b 2f 87 5b bb 87 79 9a bc 9b 2d 9e bc
       0.0028025925 -0.0033497324 -0.018856777 -0.019308856
0001c0 36 35 92 bc a3 82 a8 3d 65 b9 0b bd 63 9c ba 3d
       -0.017847639 0.08228042 -0.034112353 0.0911186
0001d0 79 d5 4f 3c df 54 19 bd 95 05 ff bc cf 62 0e 3d
       0.012685173 -0.037434455 -0.031130591 0.0347622

fc2.weight f4 [84, 120]
000000 c3 5a 4b bc 4d 1c 99 bd 60 2f 65 bd 4f 25 2f bd
       -0.012411776 -0.07476101 -0.055953383 -0.04276019
000010 d7 70 02 3e ba 48 0a 3c aa c1 07 3d b2 03 b1 bd
       0.12738357 0.008440191 0.033143677 -0.08643283
000020 fe 7d 28 3d d7 0c a7 3d 43 46 ef 3d 83 0d 8c 3d
       0.04113578 0.08156746 0.11683323 0.06838515
000030 e8 da 65 bd 7a b1 81 3d 0d 11 fb bd 56 5b 81 3d
       -0.05611697 0.06332679 -0.122591116 0.06316249
000040 00 06 81 bd e1 2e dc bc 5c aa 06 3d a3 84 83 3e
       -0.062999725 -0.026877822 0.03287731 0.2568713
000050 40 92 43 bd 3f a2 c5 3c 39 c8 0f 3e c4 73 9c 3b
       -0.047746897 0.024125217 0.14041223 0.0047745425
000060 ff 87 07 3d 5c 29 35 3e de 7b 83 3d 85 8a 0c 3d
       0.03308868 0.17691559 0.0642011 0.03431179
000070 a2 7d 8c 3d 99 8a a0 3d 44 51 68 bc 89 00 0f bd
       0.068599 0.078389354 -0.0141795315 -0.03491262
000080 e0 de 2d bd a6 df a9 bd 73 9d ce bc fc 88 13 3f
       -0.04244888 -0.08294611 -0.025221562 0.57630897
000090 d3 4d 6d 3c 3b 7e 9c bd 75 9a af bc 47 32 38 3d
       0.014483887 -0.07641264 -0.021435956 0.044969823
0000a0 6c 56 cd bc 2e db 77 bd b5 45 9a bd 07 6a 2a bc
       -0.025065623 -0.06051176 -0.07532827 -0.010401255
0000b0 18 8b 52 bc ab 82 ae bc 25 30 67 bd 2b e1 2c 3d
       -0.012850545 -0.021302542 -0.0564424 0.042206924
0000c0 4a d9 75 bc 0f 5b 51 3e d8 1f c6 3e 5b b4 c8 3e
       -0.015005419 0.20444892 0.3869617 0.392001
0000d0 ba fc 03 bd 6e 65 d5 3b ba 9a b8 3c 6c f7 bf 3a
       -0.03222344 0.0065123355 0.022534717 0.0014645881
0000e0 1a f6 ec 3c bb 60 36 3d 7f 47 95 bd 6d 11 3f bc
       0.028925944 0.044525843 -0.072890274 -0.0116618695
0000f0 8d 75 98 3d c3 c0 18 bd f5 6e 91 3d 8d 68 13 3d
       0.07444296 -0.037293207 0.071012415 0.03598838
000100 f0 aa 95 3c 4c e5 77 bc 0c 9d dd 3c 27 18 69 bd
       0.018269986 -0.015130352 0.027052425 -0.0569078
000110 9a 68 b9 3c 7a 51 a6 3d 55 af 8c 3d 88 ca b1 3d
       0.022632886 0.08121009 0.068693794 0.08681208
000120 3b 07 0c bd e0 ea 62 bd 4c f5 8f bd b0 61 66 bd
       -0.034186583 -0.055399776 -0.070292085 -0.056245506
000130 f0 64 b2 bc 86 ac 66 3d d8 bf a5 3d 54 18 4d 3e
       -0.021776646 0.056316875 0.08093232 0.20028812
000140 43 b2 34 bc 18 88 ad bd 1f c5 90 bb 96 b3 90 bd
       -0.011028829 -0.084732234 -0.00441803 -0.07065503
000150 b3 01 af bb 29 bd bb 3b 67 60 5b bd b6 55 a7 bd
       -0.0053407787 0.0057293368 -0.053558733 -0.08170645
000160 04 99 b6 3d 45 8f c2 3d fd 72 8d 3d ef 7d 76 bd
       0.08915904 0.09499983 0.06906698 -0.060178693
000170 ee e6 e5 b9 79 c6 6a 3e 3a 2b 89 bd 53 b9 73 bd
       -0.0004385034 0.22927274 -0.06697698 -0.05950291
000180 dd 28 27 bd 23 72 d7 3c ae 8b 94 3e 2d 74 78 bd
       -0.040810455 0.026299542 0.29012817 -0.06065767
000190 e9 da 79 bd 99 a0 01 bb bf f8 8d 3d dc f5 94 bd
       -0.060999785 -0.0019779562 0.0693221 -0.072734565
0001a0 e6 52 8f 3d 7a fe 8d 3c 2c 3e 8f 3d b4 af b2 3d
       0.069982335 0.017333258 0.0699428 0.08724919
0001b0 7d 4f a5 bc 10 45 93 3d c4 07 a9 3d 55 42 52 bd
       -0.020179505 0.07190907 0.08253434 -0.05133279
0001c0 2e ae 2e 3c b7 22 a4 3d 2b d7 44 3d 3f 1a d4 3d
       0.010661645 0.08014434 0.048056763 0.103565685
0001d0 6a 94 bb 3d 6b fd 64 bd 8c 98 32 3d 54 42 13 be
       0.09159167 -0.05590574 0.04360251 -0.14380771
0001e0 f1 7f 54 3d 7c 36 91 3c db 0a 8e bc 3f cf 21 3d
       0.051879827 0.017726175 -0.01733916 0.039504286
0001f0 40 fc 9b 3c c8 79 53 bd e9 a5 a9 3e 35 49 a6 bd
       0.01904118 -0.05162981 0.33134392 -0.08119432
000200 5b 8d fc 3c 6a 69 f4 3c 15 cd bc 3b cd 4f d3 3d
       0.030829122 0.029835422 0.0057617524 0.10317955
000210 a2 ef a2 bd 4f 8d 9b 3d e9 05 6b bd ca 17 74 3c
       -0.079558626 0.07595312 -0.057378683 0.01489825
000220 2b 59 7d 3e 02 cb b9 3d 60 4d 94 bd 26 45 08 3e
       0.24741046 0.09071924 -0.072413206 0.13307628
000230 47 f0 6d bd 09 5c af 3c 0c b1 92 3e b5 87 ac 3d
       -0.058090474 0.02140619 0.286507 0.084243216
000240 37 59 a7 3d 58 24 ec 3d 84 c2 89 bd 64 ce 64 bd
       0.08171313 0.115303695 -0.06726554 -0.055860892
000250 68 ce 9e bb 80 a6 dd bb da 85 0a 3d e6 c1 aa 3d
       -0.004846383 -0.006764233 0.033819057 0.083377644
000260 ea f7 77 3d c9 39 9d 3d 02 f2 e1 bd f2 8d db 3e
       0.060539164 0.07677037 -0.110324875 0.42881733
000270 ce 6b 37 bc 8a 19 c1 3b b3 4d cf 3d 08 e1 46 3d
       -0.011195136 0.005892937 0.10122242 0.04855445
000280 13 da b7 3d a7 cd 9d bd 3c 40 80 3c ec 19 a0 bd
       0.08977141 -0.07705241 0.01565563 -0.07817444
000290 60 09 3f bc ca bc 4b bd 21 59 a8 3e a0 0b 30 bd
       -0.01165995 -0.04974059 0.328805 -0.042979836
0002a0 4b 42 c2 3d 69 c7 bb 3e ba e8 9e 3e ec 02 d1 3d
       0.09485301 0.36675575 0.3103693 0.102056354
0002b0 2a 6f 04 3d 27 45 30 3c b0 5d d0 bb df 28 7f bd
       0.032332577 0.010758675 -0.0063588247 -0.062294837
0002c0 4c f4 ec 3c 8f 7d 00 3f 1a 95 80 bd 96 a0 80 bd
       0.028925084 0.5019159 -0.06278439 -0.06280629
0002d0 62 f2 bb bc fb 53 95 bb 3c 39 d1 bd a8 6f 5e 3c
       -0.022942726 -0.0045571304 -0.10215995 0.013576426
0002e0 1c 0e 42 3d d0 1e 52 3d 81 68 46 3d 82 7d a8 3d
       0.047376737 0.051298916 0.048439506 0.08227064
0002f0 b5 e6 64 bd 60 ae 47 bd f5 92 80 bd 12 dd 95 3d
       -0.055884082 -0.04875028 -0.0627803 0.073175564
000300 d6 d0 2c 3d 81 f4 b8 bd 78 a5 9d bc 8b 2f d0 3b
       0.04219135 -0.090310104 -0.01924394 0.006353324
000310 f7 f0 a8 3d 6c 73 0b 3d fc bc 5f 3d 5d 90 82 3c
       0.082490854 0.03404562 0.05462359 0.015937978
000320 d9 5a e8 bc 81 7a c8 bc 3b 99 12 3d 39 fb 5b bd
       -0.028363632 -0.024472477 0.035790663 -0.05370638
000330 b2 4e 93 bd 0b 6f 54 bd 04 a3 db 3c 70 6a 75 3d
       -0.07192744 -0.05186371 0.02681113 0.05991596
000340 b9 87 ca bc c4 63 d0 bd 9c 55 b6 3d 62 cb e4 bc
       -0.02472292 -0.10175279 0.089030474 -0.027929012
000350 33 71 92 3d 3a 93 68 3d 4d 45 10 bd ed 05 0a 3d
       0.07150497 0.05678103 -0.03522234 0.033697058
000360 04 ea 4b bd 15 e2 90 3d b5 3c 26 be b5 03 80 bd
       -0.04978372 0.07074372 -0.16234095 -0.06250707
000370 7d 52 77 bd 79 80 01 3d 83 35 94 3d 8f d2 70 3b
       -0.0603814 0.03161666 0.07236769 0.0036746596
000380 84 8e 9b 3d 27 71 08 3e 82 95 04 bd 1c 21 2b b9
       0.07595542 0.13324414 -0.032369144 -0.00016320165
000390 6e 59 42 3d a9 a4 13 bd 5d dd 81 bc 31 10 72 bd
       0.047448568 -0.036045704 -0.015852625 -0.059097473
0003a0 fd 63 44 bc 3c bf f9 3d a2 b3 90 bd d1 19 98 3d
       -0.01198673 0.12194678 -0.07065512 0.07426799
0003b0 68 bd 82 3d 2e 5f ad bd 99 ad f0 3c 40 94 18 be
       0.063837826 -0.0846542 0.029379653 -0.14900303
0003c0 1a d6 07 3d 10 4c f7 3c 66 bd 8a 3d 74 95 84 bd
       0.033163168 0.030187637 0.06774406 -0.064738184
0003d0 4f e8 a2 3d 7b 52 c3 bc 90 30 35 3e c3 29 c8 3b
       0.079544656 -0.02384304 0.17694306 0.006108494
0003e0 65 39 1a 3d 63 f7 61 bc d7 2a ff bc a7 ac b3 3c
       0.037652392 -0.013791892 -0.031148357 0.021932913
0003f0 a5 aa 8f bc 7c d2 c0 3d 55 b6 0e be 7d 12 62 bd
       -0.017537424 0.09415147 -0.13936742 -0.055193413

fc2.bias f4 [84]
000000 7c 73 34 3e 63 5c 59 3e da e2 2a 3e 83 df 96 3e
       0.17622179 0.21226649 0.166881 0.294674
000010 b3 28 f0 bd 04 da d0 3e 6d 7f 8e 3e 02 dc f2 3d
       -0.11726513 0.40791333 0.27831593 0.118583694
000020 92 9c 03 bd 8e 42 6f 3d a9 53 4c 3d c1 02 93 bd
       -0.03213174 0.05841308 0.049884472 -0.0717826
000030 22 c3 ca bd ac 87 39 3d 00 76 cb bd c3 e0 ba bd
       -0.099005 0.045295402 -0.09934616 -0.09124901
000040 d2 3a 9f 3b 65 3a 50 3d 3a af 24 3d 99 3e 2b 3c
       0.004859307 0.05083694 0.04020617 0.010451936
000050 78 3a 80 3d 1e 5f cb 3b ef 10 08 3d 88 15 a7 bd
       0.06261152 0.006206407 0.033219274 -0.08158404
000060 ba a2 b7 bd 04 1d 20 3d 5a f7 82 3d d5 45 0b 3d
       -0.089665845 0.03909017 0.06394835 0.034002144
000070 3f ad 5d bd e8 19 46 bd 97 17 83 bd 7f 4b 27 3d
       -0.0541203 -0.04836455 -0.06400984 0.040843483
000080 b0 ca a8 bd 87 e2 90 3c 37 92 c0 3c 92 64 a1 bd
       -0.082417846 0.017686142 0.02350722 -0.078805104
000090 60 5d 07 bc 76 96 5c 3d 64 83 65 bd 03 e5 da bd
       -0.008262008 0.05385443 -0.056033507 -0.10688212
0000a0 19 d7 85 bd 62 47 aa bb ee 70 47 bb 7b 22 a0 3c
       -0.06535167 -0.005196498 -0.0030432302 0.019547692
0000b0 11 b6 7d bc af e3 bb bd 52 89 cb bd 2e 2b c1 bd
       -0.015485303 -0.091742866 -0.09938301 -0.09432064
0000c0 41 8c d2 bd 84 3d d8 bc 2d 10 f0 3c 88 67 21 bd
       -0.102806576 -0.02639652 0.029304588 -0.039405376
0000d0 4d 53 af bc ae aa 2a 3d 23 71 bb bc e1 6e 71 3d
       -0.021402026 0.04166668 -0.022881096 0.058943633
0000e0 25 57 71 3c 9e 94 2a bd 92 5a 40 bc 08 e2 80 3d
       0.0147302495 -0.04164564 -0.011740344 0.06293112
0000f0 79 70 89 bd 99 17 44 bd 74 50 d9 bd bd 53 30 bc
       -0.067109056 -0.047874067 -0.10611048 -0.010762152
000100 d6 1b 6f bc b8 4b 40 bd 5c 93 93 bc 66 c6 d8 bd
       -0.014594039 -0.04694721 -0.018014602 -0.105847165
000110 21 85 34 3d d4 88 a9 bc b6 ac f3 bc ae 04 54 3d
       0.044072274 -0.020695128 -0.02974544 0.051762275
000120 ca 64 eb bd 8b 9a b4 bd ab d4 af bd d0 24 bd bb
       -0.11493833 -0.08818539 -0.08585485 -0.0057722107
000130 0e 90 dc 3c aa ce 11 3d 34 6e 4f 3d 9d 1c 25 bc
       0.02692416 0.03559748 0.050642207 -0.010077623
000140 05 35 cb bc 5c 99 cf 3b 21 dd e8 bb 8a 8a e5 3c
       -0.024805555 0.0063354205 -0.0071064387 0.028020162
