Saved_Train_Dict/lenet5_regular_epoch_0.pt (torch, 545423 bytes, 8 tensors)

conv1.weight f4 [6, 1, 5, 5]
0	0x3de1dad2	0.11028065
1	0xbb5de740	-0.003385976
2	0xbe122412	-0.14271572
3	0x3e06b09d	0.1315331
4	0x3e034fe5	0.12823446
5	0xbce5fed8	-0.02807562
6	0xbdd920e0	-0.106019735
7	0xbdbdd29a	-0.09268685
8	0x3e0821f9	0.1329421
9	0xbdbc33f3	-0.09189596
10	0x3d071f80	0.032989025
11	0x3e2255df	0.1585307
12	0x3e3a25f1	0.18178536
13	0xbe1b3cc2	-0.15159896
14	0x3e06aac7	0.13151084
15	0x3ced5580	0.028971434
16	0x3d85b972	0.065295115
17	0x3ca5ba80	0.020230532
18	0xbd536c60	-0.051617026
19	0xbdd28b70	-0.10280502
20	0x3d342b00	0.04398632
21	0x3cf98ad8	0.030461714
22	0x3d8edd16	0.069757625
23	0x3e35cb29	0.1775328
24	0x3d3b07ac	0.045661613
25	0xbe1e3bbd	-0.15452476
26	0x3d90e046	0.07074027
27	0xbe37f3d5	-0.17964108
28	0x3e069073	0.1314104
29	0x3d8b0b22	0.06789233
30	0x3dfff8be	0.12498616
31	0x3d476934	0.048684314
32	0xbe24c876	-0.16092095
33	0xbe2839f5	-0.16428359
34	0x3e12d499	0.14338912
35	0xbda54be0	-0.08071113
36	0x3deddbfe	0.11614226
37	0xbdfd3b13	-0.12364783
38	0xbe25e7b8	-0.16201675
39	0xbe462232	-0.19348982
40	0x3d18b368	0.03728047
41	0x3df4b0d6	0.11947791
42	0xbd4c0f34	-0.049819186
43	0xbc8e4050	-0.017364651
44	0xbd517f4c	-0.05114679
45	0xbd676094	-0.05648859
46	0xbe0e58b6	-0.13901028
47	0xbb345680	-0.0027517378
48	0xbde03423	-0.10947444
49	0x3d18afa8	0.037276894
50	0x3c1e3900	0.009657145
51	0xbd81cf3c	-0.06338355
52	0x3c5c0fb0	0.013431475
53	0xbe258a63	-0.16166072
54	0xbd97dce4	-0.074151784
55	0x3bd4b6c0	0.006491512
56	0xbdf80bed	-0.1211165
57	0x3e2db6c7	0.16964255
58	0x3d84a472	0.06476678
59	0xbd8c894c	-0.06862125
60	0xbe41a81a	-0.18911782
61	0xbe387640	-0.18013859
62	0x3d5d901c	0.05409251
63	0xbd2390a0	-0.039932847
64	0x3d756924	0.059914723
65	0xbd26dfd4	-0.040740803
66	0xbe45d13a	-0.19318095
67	0xbdd495b3	-0.10380115
68	0x3e310567	0.17287217
69	0xbdd29343	-0.10281994
70	0xbe39ee1b	-0.18157236
71	0x3dcc75f2	0.09983434
72	0xbd73aa74	-0.05948873
73	0x3dd91f0a	0.10601623
74	0xbd909340	-0.07059336
75	0xbdeb3fbd	-0.114867665
76	0x3debe4e2	0.11518265
77	0xbdb6ae0d	-0.08919916
78	0xbe2bcbe2	-0.16776994
79	0xbe4164ca	-0.18886104
80	0x3d4ed49c	0.05049573
81	0xbceb5380	-0.02872634
82	0xbe10edcb	-0.14153211
83	0xbde811d3	-0.11331525
84	0xbdd6e740	-0.10493326
85	0x3d56ed44	0.052472368
86	0x3d937ee6	0.07201938
87	0x3d29856c	0.041387007
88	0xbd9aa6d7	-0.075513534
89	0x3d4ed6c4	0.050497785
90	0x3e112c75	0.14177115
91	0xbca9edd0	-0.02074328
92	0x3e3eaeb9	0.18621339
93	0xbc2f5600	-0.010701656
94	0xbe2336a2	-0.1593881
95	0x3dc7c2a2	0.0975392
96	0x3e2f4795	0.1711715
97	0xbe266325	-0.16248758
98	0xbe24e29e	-0.16102073
99	0xbd016bc8	-0.03159693
100	0x3e255e4b	0.16149251
101	0x3e0c1167	0.13678513
102	0x3d59a6ec	0.053137705
103	0xbd64b36c	-0.055835173
104	0xbc98cc50	-0.018652111
105	0x3e26f64d	0.16304894
106	0xbda80a93	-0.08205142
107	0xbdd0c193	-0.10193171
108	0x3e4782c3	0.19483475
109	0x3dd8419a	0.105593875
110	0xbdff6827	-0.12471037
111	0xbcc5d240	-0.024148107
112	0xbe0766fd	-0.1322288
113	0xbe0743ae	-0.13209412
114	0x3d120394	0.035647944
115	0xbe355092	-0.17706516
116	0xbd5c0e94	-0.05372484
117	0x3d03ba94	0.032160357
118	0xbcd9e568	-0.026598647
119	0xbe2fc270	-0.17164016
120	0xbd590ce8	-0.052990824
121	0x3e36b77d	0.17843433
122	0x3e3bb6bb	0.18331425
123	0x3d9bcb46	0.07607131
124	0x3ddab85e	0.106796965
125	0x3ded5e92	0.115903035
126	0xbe481f72	-0.19543245
127	0x3d506fb4	0.05088778
128	0x3e0d9499	0.13826217
129	0xbd7839b8	-0.06060192
130	0x3c84d580	0.016215086
131	0x3db0ae1a	0.08626957
132	0x3b8a0360	0.004211828
133	0x3d88ec32	0.06685676
134	0x3e490981	0.19632532
135	0x3e3b7e61	0.18309928
136	0xbe360953	-0.17776994
137	0x3e32b525	0.17451914
138	0xbe24b2d2	-0.1608384
139	0xbe3dc665	-0.18532713
140	0xbe2cf68d	-0.16890927
141	0x3dffbda2	0.124873415
142	0xbc1af2b0	-0.009457275
143	0x3ddcfbd2	0.107902184
144	0xbe15e3f6	-0.14637741
145	0xbe40de33	-0.18834762
146	0xbc708d20	-0.014682084
147	0x3d24b378	0.040210217
148	0xbdb667ed	-0.08906541
149	0x3c664620	0.014054805

conv1.bias f4 [6]
0	0x3e48e26d	0.19617625
1	0x3c822200	0.015885353
2	0xbde1f2a0	-0.11032605
3	0xbd10f4ac	-0.035389587
4	0x3da13f52	0.078734055
5	0x3bfc2da0	0.0076958686

conv2.weight f4 [16, 6, 5, 5]
0	0xbba229b0	-0.004948817
1	0x3c92ad54	0.017904915
2	0xbc399948	-0.011328049
3	0xbcd9babc	-0.0265783
4	0x3cc5d798	0.024150655
5	0x3d692eac	0.056929275
6	0x3d686940	0.056741
7	0xbd5e515b	-0.054276805
8	0x3cb01b00	0.02149725
9	0xbcd11a50	-0.025525242
10	0xbd48f6f9	-0.049063656
11	0xbd8b7a84	-0.068104774
12	0x3aa31380	0.0012441725
13	0xbd02f13d	-0.031968344
14	0x3b4bd860	0.0031104311
15	0x3ccb2f24	0.024802752
16	0x38715000	5.7533383e-05
17	0x3c910334	0.017701723
18	0x3da17cc4	0.07885125
19	0x3d84090c	0.06447038
20	0xbd12b121	-0.035813455
21	0xbd13292f	-0.035927948
22	0x3bece9f0	0.007230036
23	0xbc0f1080	-0.008731961
24	0xbbcfc700	-0.0063408613
25	0xbc8ef9a0	-0.017453015
26	0xbd57d856	-0.05269655
27	0xbda679a6	-0.08128671
28	0xbc967300	-0.018365383
29	0xbd567e2a	-0.052366413
30	0xbd41f53b	-0.04735301
31	0xbb73bfc0	-0.003719315
32	0x3da23074	0.07919398
33	0xbd819cf1	-0.06328762
34	0x3c815b20	0.015790522
35	0x3d100048	0.03515652
36	0x3d999164	0.07498434
37	0x3b559780	0.0032591522
38	0x3ca7625c	0.020432644
39	0xbd87c950	-0.06630194
40	0xbc11a048	-0.008888312
41	0xbcbb0580	-0.022829771
42	0x3d8a44a8	0.067513764
43	0xbc8f76c0	-0.01751268
44	0x3d5c10d4	0.053726986
45	0xbc556130	-0.01302366
46	0x3ce58310	0.028016597
47	0xbc860514	-0.016359843
48	0xbc89e5fc	-0.016833298
49	0x3b83fb80	0.004027784
50	0xbd9aba38	-0.0755505
51	0x3d3504e0	0.044194102
52	0x3cd9a628	0.026568487
53	0xbb9f9c80	-0.004870951
54	0xbb32bfe0	-0.002727501
55	0xbd8a8923	-0.06764438
56	0x3c3674e8	0.011136271
57	0xbcb99d9c	-0.022658162
58	0x3c624e78	0.013812654
59	0xbca57a3c	-0.020199887
60	0x3da36a88	0.079793036
61	0xbd7e2dba	-0.062055327
62	0x390e7e00	0.00013589114
63	0x3b93e290	0.0045130923
64	0xbc32f158	-0.010921799
65	0xbd8e4b66	-0.06947975
66	0xbd9834b0	-0.07431924
67	0xbcdac618	-0.026705787
68	0x3cac68c8	0.021046057
69	0xbd23905b	-0.03993259
70	0x3cd9201c	0.026504569
71	0x3cc52880	0.024067163
72	0xbd1d4c00	-0.038402557
73	0x3d61db70	0.055140913
74	0xbca3322c	-0.019921385
75	0xbd5d31ce	-0.054002576
76	0xbd9f698b	-0.077838026
77	0xbd8a9d97	-0.06768339
78	0xbd31b98c	-0.043389842
79	0x3d5e3524	0.054249898
80	0x3d040370	0.03222984
81	0xbd6f49fc	-0.058420166
82	0xbba37710	-0.0049885586
83	0xbd38d8d1	-0.045128647
84	0x3b175760	0.002309285
85	0x3d62d5cc	0.055379674
86	0xbb9cb220	-0.0047819763
87	0x3d489bbc	0.048976645
88	0xbd8a1ba8	-0.06743556
89	0xbbd5c300	-0.00652349
90	0x3d3ee62c	0.046606228
91	0x3d54986c	0.051903173
92	0x3c68fb30	0.014220044
93	0xbbc454d0	-0.0059915558
94	0xbd21e7f8	-0.039527863
95	0xbce0151c	-0.027353816
96	0x3d98a7de	0.07453893
97	0x3b991110	0.0046712235
98	0x3d3fb924	0.046807423
99	0xbc823830	-0.015895933
100	0x3a5a6c80	0.0008332208
101	0x3d7b0a8c	0.061289355
102	0xbd1c5cb7	-0.038174357
103	0xbd2644db	-0.04059301
104	0x3d4962cc	0.049166486
105	0x3cafca90	0.021458894
106	0x3c31e220	0.010857135
107	0xbd777416	-0.060413443
108	0x3d0ffa42	0.035150774
109	0x3ce09a5c	0.027417354
110	0x3c5f0348	0.013611622
111	0xbb73ff40	-0.0037230998
112	0xbcea693c	-0.028614633
113	0x3d336a44	0.043802515
114	0xbd24bee1	-0.0402211
115	0xbbdb8f20	-0.0067004114
116	0x3cb322f4	0.021867253
117	0xbda37436	-0.0798115
118	0xbd7b63b4	-0.06137438
119	0xba580980	-0.00082411617
120	0x3cd474d0	0.025934607
121	0xbd2f35d3	-0.04277594
122	0x3d562e3c	0.052290186
123	0xbc9d996c	-0.019238196
124	0xbd5ef7a5	-0.05443539
125	0x3d6be084	0.05758716
126	0x3d3fb12c	0.046799824
127	0xbd577fb0	-0.052612007
128	0xbd0407f6	-0.032234155
129	0xbc0c7ab8	-0.00857418
130	0xbd538c48	-0.051647455
131	0xbda65217	-0.08121126
132	0x3d85ca74	0.065327555
133	0xbce061ec	-0.027390443
134	0x3cee7658	0.029109165
135	0xbc8cca00	-0.017186165
136	0x3d12fae0	0.035883784
137	0xbba90b00	-0.005158782
138	0x3d8950ca	0.067048624
139	0x3ce8d300	0.028420925
140	0xbd14417f	-0.036195274
141	0x3da08580	0.07837963
142	0xbd2e3d9e	-0.04253923
143	0xbc442d98	-0.011973761
144	0x3d45987c	0.048241124
145	0xbd56d092	-0.052445002
146	0xbcf0dfe8	-0.029403642
147	0x3c62e518	0.0138485655
148	0x3d593a28	0.053033978
149	0x3d28631c	0.041110143
150	0x3d91e48a	0.071236685
151	0x3d17b53e	0.03703808
152	0xbb6abb60	-0.003581725
153	0xbcf8a53e	-0.030352231
154	0xbd60f0b8	-0.054917067
155	0xbd6954c2	-0.056965597
156	0xbd6afaa4	-0.057367936
157	0xbda5cc08	-0.080955565
158	0x3c01da50	0.007925585
159	0xba50b280	-0.0007961169
160	0x3d33d3dc	0.043903217
161	0xbd801580	-0.06254101
162	0x3d9519ca	0.072803095
163	0x3d5925d8	0.053014606
164	0xbc9dd4aa	-0.019266445
165	0x3ce3d850	0.027813107
166	0x3cd76680	0.026293993
167	0xbc857e6c	-0.016295634
168	0xbca3e220	-0.020005286
169	0x3d88e0b2	0.06683482
170	0x3d1c4a8a	0.038157023
171	0x3ca623cc	0.020280741
172	0xbd9bdb6f	-0.07610213
173	0xbd864ad7	-0.06557243
174	0x3d52a764	0.051429167
175	0xbd851619	-0.064983554
176	0x3d87023a	0.065922216
177	0xbd211e9d	-0.039335836
178	0x3d796158	0.06088385
179	0x3da4fb12	0.080557
180	0x3d2c7604	0.042104736
181	0xbd1f8074	-0.03894086
182	0x3d28c19a	0.041200258
183	0x3c8078c0	0.015682578
184	0x3d9761fa	0.073917344
185	0xbc6a78c0	-0.014311016
186	0xbc3645a0	-0.011124998
187	0xbbccdf90	-0.0062522367
188	0x3cff288c	0.031147264
189	0xbd237535	-0.0399067
190	0xbc8af768	-0.016963676
191	0xbd9baa16	-0.07600801
192	0x3d5b0378	0.053470105
193	0x3c970c28	0.018438414
194	0x3d4fa954	0.050698593
195	0x3bc156f0	0.0059002563
196	0xbd3ac71a	-0.045600034
197	0x3d8a6bc4	0.06758836
198	0xbbb4f420	-0.005522266
199	0x3da2ec2e	0.07955204
200	0x3abad900	0.0014255345
201	0x3d9bdbdc	0.07610294
202	0x3c851924	0.01624734
203	0x3d86d8e2	0.06584336
204	0xbb66eb00	-0.0035235286
205	0x3ca76060	0.020431697
206	0xbd8fa4ae	-0.07013832
207	0xbd34bed2	-0.044127293
208	0xbb54bee0	-0.0032462403
209	0xbd67a9a4	-0.056558266
210	0x3c7048b8	0.014665775
211	0xbd320704	-0.043463722
212	0x39c98300	0.0003843531
213	0x3cbdaa94	0.023152627
214	0xbccd4ab4	-0.025060035
215	0x3bbadaf0	0.005702369
216	0xbd713230	-0.058885753
217	0x3c14cde8	0.009082295
218	0xbd5d5f9f	-0.05404627
219	0x3cee73f4	0.029108025
220	0x3cb2b768	0.02181597
221	0xbc8e92e0	-0.01740402
222	0xbd30bada	-0.043146946
223	0xbd1c346c	-0.03813593
224	0xbcf19694	-0.029490747
225	0xbcc71654	-0.024302639
226	0x3d8e035a	0.06934233
227	0xbd5d6227	-0.054048683
228	0xbce5efd0	-0.028068453
229	0xbcb0b328	-0.021569803
230	0x3d453acc	0.048151776
231	0xbd3c086d	-0.045906473
232	0x3d6d77b0	0.05797547
233	0xbd56b320	-0.05241692
234	0x3da3c15e	0.07995866
235	0xbd4a657a	-0.04941318
236	0xbda0b533	-0.07847061
237	0x3d8574a4	0.06516388
238	0x3d93b236	0.072117254
239	0xbc98cbfc	-0.018651955
240	0xbd0c0317	-0.034182634
241	0xbd60710d	-0.054795314
242	0xbd9624ad	-0.07331214
243	0xbb8c8c40	-0.00428918
244	0xbc2e03d8	-0.010621034
245	0x3b1634e0	0.00229197
246	0xbd8b8fd2	-0.06814541
247	0x3d276b44	0.04087378
248	0xbc425f30	-0.011863515
249	0xbd3857ef	-0.045005735
250	0xbcc48236	-0.02398787
251	0xbd1e74dc	-0.038685665
252	0xbd4eaba2	-0.05045665
253	0xbb108f80	-0.002205819
254	0xbd25498a	-0.040353335
255	0x3cb3faec	0.021970235

conv2.bias f4 [16]
0	0x3cd82588	0.026385084
1	0xbd93d367	-0.07218056
2	0x3d5f77a0	0.054557443
3	0x3ba1c5b0	0.0049368963
4	0x3d30ce70	0.043165624
5	0xbd4e8a3a	-0.050424792
6	0x3d098966	0.0335783
7	0xbd174d17	-0.036938753
8	0xbd8f7f35	-0.07006685
9	0xbcebabb0	-0.02876839
10	0x3d93ac2a	0.07210572
11	0xbd7abb3d	-0.06121372
12	0xbd3b081e	-0.045662038
13	0x3d8cc800	0.068740845
14	0xbd13b412	-0.0360604
15	0xbcb64116	-0.022247832

fc1.weight f4 [120, 1024]
0	0xbc2beaec	-0.010493021
1	0x3ca67548	0.020319596
2	0x3cb5b5da	0.02218144
3	0x3cf697aa	0.030101616
4	0x3b399a60	0.0028320774
5	0x3cb11722	0.021617476
6	0xbcfaa582	-0.030596498
7	0x3b09e3f0	0.0021040402
8	0x3cc79326	0.024362158
9	0x3cd645ec	0.026156388
10	0x3beba910	0.0071917847
11	0x3ab1d040	0.0013566092
12	0xbc6d4f40	-0.014484227
13	0xbc118724	-0.008882318
14	0x3ca94624	0.020663328
15	0x3cfcf756	0.030879658
16	0x3c983fca	0.018585104
17	0xbc7d20e8	-0.01544974
18	0xbc065670	-0.008199319
19	0x3a998880	0.0011713654
20	0x3c95647a	0.018236388
21	0xbcc865a8	-0.024462536
22	0xbc8513d6	-0.01624481
23	0xbcad3344	-0.02114261
24	0x3cf7dc66	0.030256461
25	0xbacaaa00	-0.0015462041
26	0xbca48606	-0.020083439
27	0xbccb531e	-0.024819907
28	0xbcd30d04	-0.025763042
29	0xbb4a5de0	-0.0030878708
30	0x3cf19dfc	0.029494278
31	0x3caa7200	0.020806313
32	0xbb87bc18	-0.0041422956
33	0x3c3a2254	0.0113607235
34	0x3cfddfc0	0.030990481
35	0xba9b8760	-0.0011865906
36	0x3bb19968	0.005419899
37	0xbb30a680	-0.002695471
38	0xbcfa3a5c	-0.030545406
39	0x3c13167c	0.008977529
40	0xbcbd6d0e	-0.02312329
41	0x3bdfee90	0.006833859
42	0xbcb5f890	-0.02221325
43	0x3cf5b4f2	0.029993508
44	0x3b8bcdb0	0.004266463
45	0xbbb82a70	-0.0056202933
46	0x3b6a5080	0.0035753548
47	0xbcb5aecc	-0.022178076
48	0xbcaa037c	-0.020753615
49	0xbcba5014	-0.022743262
50	0x3ca34812	0.019931827
51	0xbc95e594	-0.018297948
52	0xbc82f0aa	-0.015983898
53	0x3c9037d8	0.017604753
54	0x3cc1f9c2	0.023678664
55	0xbbb6ea60	-0.005582139
56	0xbc35beb8	-0.011092834
57	0xbcbbd6e6	-0.02292962
58	0x3ced853e	0.028994199
59	0x3c770094	0.015075821
60	0x3cd527e8	0.026020005
61	0x3c98d546	0.018656384
62	0xbc3f8a64	-0.01169071
63	0xbbc82de8	-0.006108988
64	0x3c3e7008	0.01162339
65	0xbb7c9ce0	-0.0038545653
66	0xbca5f362	-0.020257656
67	0x3c2bba20	0.010481387
68	0x3b269780	0.002541989
69	0xbbde3648	-0.006781373
70	0x3b6b7bb0	0.0035931878
71	0x3c284484	0.010270242
72	0xbc59247c	-0.013253327
73	0x3ced66da	0.028979708
74	0x3cde420c	0.027131103
75	0xbbdbdd98	-0.0067097656
76	0x3cf3dfbc	0.02976977
77	0xbc935d5a	-0.01798885
78	0xbcb09fd8	-0.021560594
79	0xbcae226e	-0.021256652
80	0xbcabe32c	-0.020982347
81	0x3b346610	0.0027526654
82	0x3c35a378	0.011086337
83	0xbcb3b4ee	-0.02193686
84	0x3cb50326	0.022096228
85	0x3ccd7704	0.025081165
86	0x3c900a26	0.017582964
87	0xbab620a0	-0.0013895221
88	0xbc88f80a	-0.016719837
89	0x3c12bca8	0.008956112
90	0xbc58c3b0	-0.013230249
91	0xbc99b324	-0.018762179
92	0x3c5fac5c	0.0136519335
93	0x3cc755a0	0.024332821
94	0x3b6ba200	0.0035954714
95	0xbceec712	-0.029147658
96	0x3c25e4d0	0.010125354
97	0xbca1c078	-0.019745097
98	0xbb8da518	-0.004322659
99	0x3ce84c52	0.028356705
100	0x3b1f7930	0.0024333708
101	0x3b431db0	0.0029772334
102	0x3bea7f88	0.007156316
103	0xbc8ef964	-0.017452903
104	0xbbb453a8	-0.0055031367
105	0xbc815b06	-0.015790474
106	0xbc817874	-0.015804507
107	0xba6a8d00	-0.0008947402
108	0x3ceb9514	0.02875761
109	0x3c965426	0.018350672
110	0x3ce36944	0.027760155
111	0xbcbd5178	-0.023110136
112	0x3b132eb0	0.0022458248
113	0x3ca100ae	0.019653644
114	0xbca27832	-0.019832704
115	0x3c9f4cc2	0.01944578
116	0xbcb25c70	-0.021772593
117	0xbcbdc122	-0.023163382
118	0xbce5a646	-0.028033387
119	0xbb736da0	-0.00371442
120	0xbb90f7d0	-0.004424073
121	0x3a6a1fc0	0.0008931123
122	0xbc99e094	-0.018783845
123	0x3cb1bb54	0.02169577
124	0xbc939ace	-0.018018153
125	0xbbde58d8	-0.0067854933
126	0xbc9b3160	-0.018944442
127	0x3c9cb806	0.019130718
128	0x3cc6700e	0.024223354
129	0xbc514ef4	-0.012775172
130	0x3b83dbf0	0.0040240213
131	0xbc692d30	-0.014231965
132	0x3c52c534	0.0128644
133	0x3cd94d96	0.026526254
134	0x3b3acb80	0.0028502643
135	0x3ba466f0	0.005017154
136	0x3be33018	0.0069332235
137	0xbc2d1700	-0.010564566
138	0x3c93db86	0.018049013
139	0x3c6e8fb4	0.014560629
140	0x3cf50d1e	0.029913481
141	0x3ca7718e	0.02043989
142	0x3ccd8248	0.025086537
143	0xbca3555a	-0.01993816
144	0x3c03bccc	0.008040618
145	0xbc46d64c	-0.012136053
146	0x3bde0b30	0.006776236
147	0xbc9be7aa	-0.019031364
148	0xbaece160	-0.0018072538
149	0xbc650e14	-0.013980407
150	0x3a047140	0.0005052276
151	0xbc7666cc	-0.015039157
152	0x3c456454	0.012047846
153	0x3bcfe038	0.0063438676
154	0xbc0213d4	-0.007939298
155	0xbc8bcc8e	-0.017065313
156	0x3b4e4890	0.0031476356
157	0x3c41e8e8	0.011835314
158	0xbc3571e0	-0.011074513
159	0x3cfced1e	0.030874785
160	0x3cc9d9ae	0.02463993
161	0x3c1ade70	0.009452447
162	0xbb8ef548	-0.004362736
163	0xbc8c89e2	-0.017155591
164	0xbc054944	-0.008135144
165	0x3c94ecb4	0.018179275
166	0xbcd538b8	-0.026028022
167	0xbcbc7376	-0.023004275
168	0x3c9bb286	0.019006025
169	0x3cc097ea	0.023509938
170	0xbc117ffc	-0.0088806115
171	0x3ceeaefc	0.029136173
172	0x3bbf83b8	0.0058445595
173	0xbc852890	-0.016254693
174	0xbc588874	-0.013216127
175	0xbbc36940	-0.0059634745
176	0xbc3d3c08	-0.011549957
177	0x3b85d8a0	0.0040846616
178	0x3b889fa0	0.0041694194
179	0x3cd715f2	0.026255582
180	0xbc865f50	-0.01640287
181	0x3cfb3406	0.030664455
182	0x3b031d50	0.0020006485
183	0xbcfab3be	-0.030603286
184	0xbc80c2aa	-0.015717823
185	0x3c9bd2fe	0.019021507
186	0xbcf85a8c	-0.030316614
187	0xbba1fa80	-0.004943192
188	0x3cfef4ba	0.031122554
189	0x3cb92e2e	0.022605028
190	0xbc57174c	-0.013128113
191	0x3ca96952	0.020680103
192	0xbc5cf9b4	-0.013487268
193	0x3b666fd0	0.003516186
194	0xbc8faa28	-0.017537192
195	0xbc4fcc78	-0.0126830265
196	0x3be41658	0.0069606714
197	0x3c8f90ec	0.017525159
198	0x3ad205c0	0.0016023442
199	0xbb40eaf0	-0.0029436909
200	0xbcaa0124	-0.020752497
201	0xbc940610	-0.018069297
202	0x3caad980	0.020855665
203	0x3c1478c0	0.009061992
204	0x3ce2c530	0.027681917
205	0xbbcf5eb0	-0.0063284263
206	0x3c681c68	0.014166929
207	0xbccca5c0	-0.02498138
208	0xbb620050	-0.003448505
209	0x3c9b09c4	0.018925555
210	0x3b302170	0.00268754
211	0x3cccc7f0	0.024997681
212	0xbc553b0c	-0.013014566
213	0xbbecb4a8	-0.0072236843
214	0x3cb8de96	0.022567075
215	0xbc748c94	-0.014926095
216	0x3c456030	0.012046859
217	0x3ac6e740	0.0015175119
218	0x3b943978	0.0045234524
219	0xbbb37448	-0.0054765083
220	0x3a13c940	0.00056375936
221	0x3be16d38	0.006879475
222	0x3bf725a0	0.007542327
223	0x3b223950	0.00247534
224	0xbc99903a	-0.01874553
225	0x3b2bb320	0.0026199296
226	0x3cc90e00	0.024542809
227	0x3b85ff60	0.004089281
228	0x3cf0797c	0.029354803
229	0xbbaa4610	-0.0051963404
230	0x3b8e81b0	0.004348956
231	0xbcf0be9a	-0.02938776
232	0xbcd66888	-0.026172891
233	0xbc99364e	-0.018702652
234	0xbc5633cc	-0.013073873
235	0x3c8a5d5c	0.01689022
236	0x3c1ced50	0.009578064
237	0xbc3efe9c	-0.011657383
238	0xbce52dae	-0.027975883
239	0xbce2a252	-0.027665291
240	0x3cb7e6c8	0.022448912
241	0x3cac3d86	0.02102543
242	0x3c4e59d4	0.012594659
243	0x3cee1ac4	0.029065497
244	0x3c84f5e2	0.016230527
245	0x3c6f6bc8	0.014613099
246	0xbc49a504	-0.012307409
247	0x3b531210	0.003220681
248	0x3cafa3ac	0.02144035
249	0xbc4679b4	-0.012113977
250	0xbc6cd190	-0.0144542605
251	0x3cc21c5a	0.02369516
252	0x3cd05672	0.025431845
253	0x3cd57adc	0.02605956
254	0xbb8a3a20	-0.004218355
255	0x3c9c9e0c	0.019118331

fc1.bias f4 [120]
0	0x3cb20810	0.02173236
1	0xbb9727a0	-0.004612878
2	0x3ca9dd94	0.02073554
3	0xbcbda630	-0.023150533
4	0x3c9625e6	0.018328618
5	0xbcc48ff0	-0.023994416
6	0x3cebb87a	0.028774489
7	0x3cc820de	0.024429735
8	0x3aa47920	0.0012548305
9	0x3c82e774	0.015979506
10	0xb9b2fd80	-0.00034139678
11	0x3cf68af2	0.030095551
12	0xbcb2ff36	-0.02185021
13	0xbca4809a	-0.020080853
14	0x3c84157a	0.016123522
15	0xba7acd00	-0.00095672905
16	0x3ccbd9da	0.024884153
17	0x3ca13a3e	0.019681092
18	0xbac5ac20	-0.0015081204
19	0x3ce7a0f8	0.028274998
20	0xbc871c76	-0.016493063
21	0x3c861956	0.016369503
22	0xbcea27e6	-0.028583478
23	0x3be01ad8	0.0068391375
24	0x3bc2dad0	0.0059464946
25	0x3cdc72b4	0.026910163
26	0xba5ac900	-0.00083459914
27	0xbcad64e6	-0.021166276
28	0x3cc4ab52	0.024007473
29	0xbc743f18	-0.014907621
30	0xbbd65260	-0.0065405816
31	0x3ca567e6	0.020191144
32	0xbc630c04	-0.013857845
33	0x3caf33fe	0.021387096
34	0x3cfb8164	0.030701347
35	0x3b91ab40	0.0044454634
36	0x3c7c7360	0.015408367
37	0xbb9b9058	-0.0047474317
38	0xbcd8c798	-0.026462361
39	0xbcc78342	-0.02435458
40	0x3bdec208	0.0067980327
41	0xbb4837e0	-0.0030550882
42	0xbc0e2f34	-0.008678246
43	0xbadcfa20	-0.0016859211
44	0xbc01488c	-0.007890832
45	0x3be8e0c8	0.007106874
46	0x3c842f74	0.016135909
47	0xbca3b22a	-0.019982416
48	0xbbae0708	-0.005310897
49	0x3ce93fd8	0.028472826
50	0x3cf68120	0.030090868
51	0x3bd5a3b0	0.006519757
52	0xbca06b68	-0.019582465
53	0xbb063150	-0.002047617
54	0x3b88f3d0	0.0041794553
55	0xbcd43fc4	-0.025909312
56	0xbc5e7108	-0.013576753
57	0x3c094e24	0.008380447
58	0x3bd82dc8	0.0065972544
59	0xbce2f598	-0.027704999
60	0x3be39850	0.0069456473
61	0xbbeb3fb8	-0.0071792267
62	0x3c46ce74	0.012134183
63	0x39d69880	0.00040930882
64	0x3ceea776	0.029132586
65	0xbc1fcf9c	-0.009754088
66	0x3cfa0756	0.030521076
67	0x3ca9d3bc	0.020730846
68	0xbc81bcda	-0.015837122
69	0x3ccec822	0.025241915
70	0xbc305504	-0.010762457
71	0x3c4a2948	0.012338944
72	0xbc2122d8	-0.009834968
73	0x3cbdcfbe	0.023170348
74	0x3cc1b8cc	0.023647688
75	0x3c2eac08	0.010661133
76	0x3bd5c7b8	0.0065240525
77	0x3bfeb060	0.0077724904
78	0x3c3b85f0	0.011445507
79	0x3cc83ca0	0.02444297
80	0x3cf49478	0.029855952
81	0x3ca61748	0.020274773
82	0xbc86aa0c	-0.016438507
83	0xbc556b6c	-0.0130261
84	0x3c64bb88	0.013960727
85	0x3c0a3d34	0.0084374435
86	0x3cbf30d8	0.02333872
87	0xbc376c38	-0.011195235
88	0x3c8828da	0.016621042
89	0xbc6f59c4	-0.014608804
90	0x3cbb106e	0.022834983
91	0x39e56e80	0.00043760613
92	0xbce3b730	-0.027797312
93	0x3c8a7f12	0.016906295
94	0x3c253204	0.010082725
95	0x3a564040	0.0008173026
96	0x3b22d4c0	0.0024846047
97	0xbc2c9fe0	-0.010536164
98	0x3c8fb5c6	0.017542731
99	0xbc19a7b8	-0.009378366
100	0xbc3b5404	-0.011433605
101	0xbc90b00e	-0.017662074
102	0x3c8954c8	0.01676406
103	0x3b096d50	0.0020969696
104	0x3ca47e3a	0.02007972
105	0x3b47fda0	0.0030516163
106	0x3c392754	0.01130088
107	0xbb898460	-0.0041966885
108	0x3b528bf0	0.0032126866
109	0xbaecf3c0	-0.0018078014
110	0xbc9bfa06	-0.019040119
111	0xbc800db2	-0.01563153
112	0xbc846406	-0.016160976
113	0x3c57af94	0.01316442
114	0xbcd0d8e0	-0.025494039
115	0x3b9c50e0	0.0047703832
116	0x3c51736c	0.012783866
117	0xbcfcda5a	-0.030865837
118	0xbcdfb4ae	-0.027307834
119	0xbc56401c	-0.013076808

fc2.weight f4 [84, 120]
0	0xbc4fc9d0	-0.012682393
1	0xbd995eb4	-0.07488766
2	0xbd713f5e	-0.058898322
3	0xbd31173c	-0.04323505
4	0x3d9d86a4	0.07691696
5	0xbadbd6c0	-0.0016772375
6	0xbdb10112	-0.08642782
7	0xbdb11688	-0.086468756
8	0x3d28804c	0.04113798
9	0x3d7f72b0	0.062365234
10	0x3db9a752	0.09065117
11	0x3d058d5e	0.03260552
12	0xbd667936	-0.05626794
13	0x3d259e5c	0.040434226
14	0xbdb4b2cf	-0.088231675
15	0x3d81eb50	0.063437104
16	0x3c0754e0	0.008259982
17	0xbd82da58	-0.06389302
18	0x3d265b7c	0.04061459
19	0xbdac2d4e	-0.08407079
20	0xbd432725	-0.047644753
21	0xbac26740	-0.0014831796
22	0x3d0c4ee0	0.03425491
23	0xbda82e86	-0.08211999
24	0x3cef06dc	0.029178075
25	0xbd97b8dc	-0.07408306
26	0x3cdaf898	0.026729867
27	0x3d0e2b98	0.034709543
28	0x3d8430dc	0.06454632
29	0x3da0a71a	0.07844372
30	0xbda6a31c	-0.081365794
31	0xbd118707	-0.035529163
32	0xbd3ac761	-0.0456003
33	0xbdaa8a69	-0.08327181
34	0x3d79e29c	0.061007127
35	0x3db21c34	0.086967856
36	0x3d8aa30e	0.067693815
37	0xbda94ab3	-0.08266201
38	0xbd632d9a	-0.05546341
39	0x3db700b4	0.08935681
40	0xbcee8eae	-0.02912077
41	0xbd1c71ce	-0.03819447
42	0xbd9afa48	-0.075672686
43	0xbc488000	-0.012237549
44	0xbc528a30	-0.012850329
45	0x3d5873e0	0.052844882
46	0x3c458e90	0.012057915
47	0x3d2d0b60	0.042247176
48	0x3d3f6d50	0.046735108
49	0x3b3d8fa0	0.0028924718
50	0x3d94fdc8	0.072749674
51	0x3d8b0d00	0.06789589
52	0xbd07f952	-0.033196755
53	0x3c4427e0	0.011972398
54	0x3c7607d8	0.0150165185
55	0x3d03684c	0.032081887
56	0x3ccccc00	0.024999619
57	0xbd3e0e6c	-0.046400473
58	0xbd953be3	-0.07286813
59	0x3daefd8a	0.085444525
60	0x3d9e8a74	0.077412516
61	0xbcc85e1c	-0.024458937
62	0x3bb3f200	0.005491495
63	0x3d0ee6e0	0.03488815
64	0x3cbd9038	0.023140058
65	0xbc7028c0	-0.014658153
66	0x3a6f6d00	0.0009133369
67	0xbd6915c3	-0.05690552
68	0x3ca0a004	0.019607551
69	0x3da04e32	0.078274146
70	0x3d8b92a2	0.06815077
71	0x3db1a8c0	0.08674765
72	0xbd199a82	-0.037500866
73	0xbd577389	-0.052600417
74	0xbd3be391	-0.04587132
75	0xbd6f6695	-0.05844744
76	0xbcb2cf30	-0.02182731
77	0x3d635f1c	0.055510625
78	0x3da5bfd8	0.08093232
79	0x3bc1b8a0	0.0059119016
80	0xbbcbefa0	-0.006223634
81	0xbda7cd68	-0.08193475
82	0xbba71dd0	-0.0050999895
83	0xbd941473	-0.07230463
84	0xbba3bbf0	-0.004996769
85	0x3bbc2200	0.005741358
86	0xbd5b7748	-0.053580552
87	0xbdaa64ad	-0.08319984
88	0x3db6afc4	0.089202434
89	0xbd243511	-0.04008967
90	0x3d86afdc	0.06576511
91	0xbd799190	-0.060929835
92	0xbc8675c8	-0.016413584
93	0xbd551de1	-0.052030448
94	0xbd978730	-0.07398832
95	0xbd740f2e	-0.05958479
96	0xbd35880e	-0.044319205
97	0x3da136b6	0.078717634
98	0x3d2309d4	0.039804295
99	0xbd80f646	-0.06296973
100	0xbd79be54	-0.060972527
101	0x3d334a84	0.043772236
102	0x3d9273a0	0.0715096
103	0xbd9562ab	-0.0729421
104	0x3c384ec0	0.011249244
105	0x3cd10404	0.02551461
106	0x3d8ef3d2	0.06980099
107	0x3db2b24c	0.08725414
108	0xbca5ba58	-0.020230457
109	0x3d9364f8	0.07196993
110	0x3da8b9c6	0.082385585
111	0xbd5240fb	-0.0513315
112	0x3bf19490	0.0073724464
113	0x3c958d38	0.018255815
114	0x3d566884	0.052345768
115	0x3d5f23f4	0.054477647
116	0x3dba1330	0.09085691
117	0xbd6901b4	-0.05688639
118	0x3d38f5fc	0.045156464
119	0xbda7496a	-0.081682995
120	0x3d546884	0.051857486
121	0x3c919840	0.017772794
122	0xbc96a1c4	-0.018387683
123	0x3d2bec5c	0.041973457
124	0x3da87f22	0.08227374
125	0xbd47c426	-0.048771046
126	0x3d7bebb4	0.06150408
127	0xbda62a46	-0.08113532
128	0x3cfc8d60	0.030829132
129	0x3d137ffc	0.036010727
130	0xbc1df3f8	-0.009640686
131	0x3d28975c	0.041159973
132	0xbda2f1b6	-0.07956259
133	0x3d4bd8d8	0.049767345
134	0xbcdb78e8	-0.026791051
135	0x3c653150	0.013988808
136	0x3d164ab8	0.03669235
137	0x3d465ad4	0.048426464
138	0xbd88074c	-0.06642017
139	0x3d23c490	0.03998238
140	0xbd6d8d13	-0.057995867
141	0x3c6d74a0	0.014493138
142	0x3d5808a0	0.0527426
143	0x3cb0387c	0.021511309
144	0x3da7298c	0.08162221
145	0x3cc5e15c	0.024155311
146	0xbd7673f2	-0.060169168
147	0xbd63ec01	-0.055644993
148	0xbc12f5e0	-0.008969754
149	0xbbe0b2a0	-0.0068572313
150	0x3d5e5ce0	0.05428779
151	0x3dae2f84	0.08505157
152	0x3d6cd52c	0.057820484
153	0x3d9dc43c	0.07703444
154	0xbd48c259	-0.04901347
155	0x3d9ec958	0.07753247
156	0xbd2a1323	-0.041522156
157	0x3b2a49a0	0.0025983825
158	0x3d3616b0	0.04445523
159	0x3d1514f8	0.03639695
160	0x3db3d428	0.087807
161	0xbda5ffcf	-0.08105432
162	0x3c0f5ec8	0.008750625
163	0xbd98f179	-0.07467932
164	0xbc3f08c8	-0.011659808
165	0xbdb10d21	-0.08645082
166	0x3d98bf46	0.074583575
167	0xbd300b14	-0.042979315
168	0xbbc6d9a0	-0.0060684234
169	0x3daf9c50	0.08574736
170	0x3d29c144	0.041444078
171	0x3db6c1ca	0.08923681
172	0x3cfbc904	0.0307355
173	0x3c372d80	0.011180282
174	0xbbfc30d0	-0.0076962486
175	0xbd9dd33f	-0.077063076
176	0x3cf49c50	0.029859692
177	0x3d9d17a4	0.07670525
178	0xbd809518	-0.062784374
179	0xba679200	-0.00088337064
180	0xbcc70ba8	-0.02429755
181	0x3b291800	0.0025801659
182	0x3aeff100	0.0018306077
183	0x3c621508	0.01379896
184	0x3d47555c	0.04866539
185	0x3d5159d4	0.051111057
186	0x3d3588ec	0.044320032
187	0x3da87e80	0.08227253
188	0xbd94226c	-0.07233128
189	0xbcc7d834	-0.024395086
190	0xbd8134e1	-0.06308914
191	0x3d95ee5c	0.07320854
192	0x3d1ef5ac	0.03880851
193	0xbd57a0aa	-0.052643456
194	0x3d628020	0.05529797
195	0x3dacbc9e	0.084344134
196	0x3da99ea4	0.082822114
197	0x3d0eb508	0.034840614
198	0x3d5fbcfc	0.05462359
199	0x3cbf3214	0.023339309
200	0xbd3d6579	-0.04623935
201	0xbcd423fc	-0.025896065
202	0x3d112c28	0.0354425
203	0xbd59c137	-0.05316278
204	0xbd964f4d	-0.07339344
205	0xbd546a45	-0.05185916
206	0x3cdbb190	0.026818067
207	0x3d2c0928	0.04200092
208	0xbcca2b44	-0.024678834
209	0xbdba863b	-0.09107634
210	0x3d6891cc	0.056779668
211	0xbcff4620	-0.031161368
212	0x3d06146c	0.03273432
213	0x3d2423c8	0.040073186
214	0xbd1ea53a	-0.03873179
215	0x3d0a6e1c	0.033796415
216	0xbd585f26	-0.052825116
217	0x3d51c03c	0.05120872
218	0xbca28de8	-0.019843057
219	0xbd852946	-0.06502013
220	0xbd773f64	-0.06036319
221	0x3caa975c	0.020824127
222	0x3d8fa062	0.070130125
223	0x3b654660	0.0034984574
224	0x3d025a3a	0.031824328
225	0x3d99688a	0.07490642
226	0xbd046cd8	-0.032330364
227	0xb927f200	-0.00016016513
228	0x3d426580	0.04746008
229	0xbd13df58	-0.03610167
230	0xbc7fcf50	-0.015613392
231	0xbd71ccc3	-0.059033167
232	0xbc9451d0	-0.018105417
233	0x3d650758	0.055915207
234	0xbd93e0bf	-0.07220601
235	0x3d5b5838	0.05355093
236	0x3d85afe6	0.065276906
237	0xbdacc178	-0.08435339
238	0x3cf1d01c	0.02951818
239	0xbdb1c672	-0.086804286
240	0x3d07d3ce	0.033160977
241	0x3cf6b4a0	0.030115426
242	0x3d838a16	0.06422822
243	0xbd87a045	-0.06622366
244	0x3d951758	0.07279843
245	0xbc7d9f28	-0.01547984
246	0x3db48096	0.08813588
247	0x3bb98a70	0.005662255
248	0x3d1a3d80	0.037656307
249	0x3bfbed10	0.007688172
250	0xbd8ec4ca	-0.06971128
251	0x3d0dab20	0.034587026
252	0xbc8f631c	-0.017503314
253	0x3d00bdb6	0.031430922
254	0xbdabc6e6	-0.08387546
255	0xbd61886a	-0.055061735

fc2.bias f4 [84]
0	0xbdab9faf	-0.083800666
1	0x3d8a3bb8	0.06749672
2	0x3c8493f8	0.016183838
3	0x3d63bd04	0.05560018
4	0xbd04614b	-0.03231935
5	0xbda22c29	-0.07918579
6	0xbc6daa70	-0.0145059675
7	0xbcd73f7c	-0.026275389
8	0xbd870bdf	-0.06594061
9	0x3d0b6a70	0.034037054
10	0x3d9cc944	0.07655576
11	0xbd3618e5	-0.044457335
12	0xbd9ff9bc	-0.07811305
13	0x3d8dc660	0.06922603
14	0xbd9fff35	-0.07812349
15	0xbd900d98	-0.07033843
16	0x3cc9690c	0.024586223
17	0x3d9d6394	0.07685009
18	0x3d7b70b4	0.06138678
19	0x3d0382d0	0.032107174
20	0x3db95478	0.09049314
21	0x3cd0654c	0.025438927
22	0x3d490334	0.04907532
23	0xbd4f7acd	-0.05065422
24	0xbd8b50c1	-0.06802512
25	0x3d891534	0.06693497
26	0x3db48ea4	0.08816269
27	0x3d6062e0	0.054781795
28	0xbd0c13c9	-0.034198556
29	0xbc9e11d4	-0.01929561
30	0xbd196ba8	-0.037456185
31	0x3d852bc6	0.0650249
32	0xbd7e0bd8	-0.062023014
33	0x3d1b96c0	0.037985563
34	0x3d3e2a14	0.046426848
35	0xbd7759fa	-0.060388543
36	0x3ca650f0	0.020302266
37	0x3da245a6	0.07923441
38	0xbd101d01	-0.03518391
39	0xbdadb822	-0.08482386
40	0xbd1bf619	-0.038076494
41	0x3ca741a8	0.02041705
42	0x3c643940	0.013929665
43	0x3d2b33b8	0.04179737
44	0x3c1c8888	0.009554036
45	0xbd8d18d0	-0.06889498
46	0xbd9917dd	-0.07475255
47	0xbd9f1f24	-0.077696115
48	0xbda4c816	-0.08045976
49	0xbba1cc40	-0.0049376786
50	0x3d45761c	0.04820834
51	0xbc98c0a0	-0.018646538
52	0x3bbf64b0	0.0058408603
53	0x3d8ac33c	0.06775519
54	0x3b385140	0.00281246
55	0x3dab08b0	0.083512664
56	0x3d1aa278	0.0377526
57	0xbc78aad0	-0.015177444
58	0x3c9b8b38	0.018987283
59	0x3daeffc0	0.08544874
60	0xbd48ef1d	-0.04905616
61	0xbcef63e0	-0.029222429
62	0xbdb91de1	-0.09038902
63	0x3c83cf58	0.01609008
64	0x3c3d36a8	0.011548676
65	0xbce9a900	-0.028522968
66	0x3ba5ac00	0.0050559044
67	0xbda9c82a	-0.082901314
68	0x3d81207e	0.063050255
69	0xbb1dd520	-0.0024083331
70	0xbc527a40	-0.0128465295
71	0x3d9c1390	0.07620919
72	0xbdb2a45b	-0.087227546
73	0xbd8e0fb2	-0.069365874
74	0xbd7b44d2	-0.06134493
75	0x3c8f5a14	0.017499007
76	0x3d479cc0	0.048733473
77	0x3d6a09dc	0.05713831
78	0x3d9221d6	0.0713536
79	0x3c72adf0	0.014811978
80	0xbb054920	-0.0020337775
81	0x3cdde14c	0.027084969
82	0x3cc74b44	0.024327882
83	0x3d3dd400	0.046344757
